static/model/digit_model.pth (torch, 432432 bytes, 6 tensors)

layers.0.weight f4 [128, 784]
0	0xbc95e8b7	-0.018299444
1	0x3d4e79e8	0.050409228
2	0x3d141dd9	0.036161277
3	0x3b3f3931	0.0029178376
4	0xbbe4a3fa	-0.0069775553
5	0x3d5832b4	0.05278273
6	0xbd50f2c6	-0.051012777
7	0xbbfcce7f	-0.007715046
8	0x3c5cb684	0.0134712495
9	0x3cd0c8ab	0.025486311
10	0x3d02f4d4	0.031971768
11	0xbc148df1	-0.009067045
12	0x3d16d496	0.03682383
13	0x3d7aeb75	0.061259706
14	0xbd84b9eb	-0.064807735
15	0x3d46ecc2	0.048565634
16	0xbd0b13f7	-0.033954587
17	0x3d3e3dd0	0.046445668
18	0x3d3f7d0c	0.046750113
19	0xbcdaae04	-0.026694305
20	0x3cb8670b	0.022510072
21	0x3c0c7f9f	0.008575349
22	0xbd72de75	-0.059294183
23	0x3d4626fc	0.048377022
24	0x3db082ef	0.086187236
25	0x3d4320f0	0.047638834
26	0x3db297b3	0.087203406
27	0xbc45e682	-0.012078883
28	0x3da2c1a3	0.079470895
29	0x3cfa0d47	0.03052391
30	0xbd6d7e35	-0.05798169
31	0x3db15bfb	0.08660122
32	0x3d964693	0.0733768
33	0xbd2c9873	-0.042137574
34	0xbd7e516d	-0.062089372
35	0x3d1abb69	0.037776385
36	0xbbe32dd2	-0.0069329524
37	0x3b8c4b67	0.0042814496
38	0x3dad3e32	0.084591284
39	0xbd0cadef	-0.034345564
40	0x3cdab0c2	0.026695613
41	0xbc58a38b	-0.013222585
42	0xbaedc668	-0.0018140795
43	0x3dad7919	0.08470363
44	0x3c045c6e	0.008078678
45	0x3ca67ee2	0.020324174
46	0xbd185395	-0.037189085
47	0xbc82ef97	-0.015983386
48	0xbd05e69f	-0.03269064
49	0xbd4ea677	-0.050451722
50	0xbd8b7c64	-0.06810835
51	0x3d9d24e0	0.07673049
52	0xbd16e144	-0.036835924
53	0x3d350778	0.044196576
54	0x3ae356bd	0.0017344576
55	0xbd84f961	-0.06492878
56	0xbd1d3f56	-0.03839048
57	0xbcc552fe	-0.024087425
58	0xbd62f96f	-0.05541366
59	0x3d472a50	0.048624337
60	0xbc4651b3	-0.01210444
61	0x3d77ea78	0.06052634
62	0x3d840ea2	0.064481035
63	0xbc99b08d	-0.018760944
64	0x3c96ddbb	0.018416276
65	0xbc5db5c9	-0.0135321105
66	0xbc8d36e7	-0.017238094
67	0xbdc7488b	-0.09730633
68	0xba8f08b2	-0.0010912626
69	0xbd49220c	-0.049104735
70	0xbc4e25f1	-0.012582288
71	0xbdb6f029	-0.08932526
72	0x3d0379c7	0.032098558
73	0xbd70b560	-0.058766723
74	0x3daeb132	0.08529891
75	0x3de1e699	0.11030311
76	0x3d49465c	0.049139366
77	0x3adbdef8	0.0016774824
78	0x3cd8003a	0.026367296
79	0x3d3c2671	0.045935098
80	0x3c77cdc1	0.015124739
81	0x3cfeee36	0.031119447
82	0xbc1b5c42	-0.009482445
83	0xbd4501a2	-0.04809726
84	0xbcd86294	-0.026414193
85	0x3c870053	0.016479647
86	0x3d74a70e	0.05972963
87	0x3c401187	0.011722929
88	0xbbc09231	-0.0058768024
89	0x3d925465	0.07145003
90	0x3d645e0c	0.055753753
91	0x3cfa4185	0.03054882
92	0x3d78c8f7	0.06073853
93	0xbd48d21a	-0.049028493
94	0xbdde8849	-0.10865838
95	0xbdfe0e3c	-0.12405059
96	0xbd8c80be	-0.06860493
97	0xbe4ed224	-0.2019735
98	0xbd833e21	-0.064083345
99	0xbe169ead	-0.14708968
100	0xbdbbef52	-0.09176506
101	0x3d8815f9	0.06644816
102	0xbcc74034	-0.024322607
103	0x3d9259e2	0.0714605
104	0x3e148371	0.14503266
105	0x3e347eda	0.17626515
106	0x3dd3fcdf	0.10350966
107	0x3df71df5	0.12066261
108	0xbd050d9c	-0.032483682
109	0xbbbf24bb	-0.005833236
110	0x3dada157	0.08478039
111	0x3ce94835	0.028476814
112	0xbd119bd6	-0.035549007
113	0x3cd49ba7	0.025953127
114	0xbd877848	-0.06614739
115	0x3c84ad5c	0.016195945
116	0x3bb5f712	0.0055531347
117	0x3d652e99	0.055952642
118	0x3d25fac7	0.040522363
119	0xbd25768b	-0.040396255
120	0x3d4f15f7	0.050558057
121	0xbd252615	-0.04031952
122	0xbdf32e00	-0.11874008
123	0xbe1a710b	-0.15082185
124	0xbe07cd0e	-0.13261816
125	0xbe592159	-0.21204127
126	0xbe67bb2e	-0.22629997
127	0xbe451006	-0.19244394
128	0xbe15b80a	-0.14620987
129	0x3d8e8fe1	0.069610365
130	0xbd5abe37	-0.05340406
131	0x3d22ddbd	0.039762247
132	0x3d5d2008	0.053985626
133	0x3cbca26e	0.023026671
134	0x3d012c43	0.031536352
135	0x3e45c263	0.19312434
136	0x3d8ac55e	0.06775926
137	0x3d7125bf	0.058873888
138	0xbb81ca17	-0.0039608586
139	0x3dab900a	0.08377083
140	0x3ce72571	0.028216096
141	0x3da6bdb5	0.081416525
142	0x3d868040	0.065674305
143	0xbd558d4f	-0.052136716
144	0xbd963ae4	-0.07335451
145	0x3dd6b5e5	0.104839124
146	0x3d5e4178	0.054261655
147	0xbd60677d	-0.054786194
148	0x3e07a2d8	0.13245714
149	0x3d48eeb0	0.049055755
150	0xbd0b74db	-0.03404699
151	0xbe78c0f4	-0.24292356
152	0xbe7e3431	-0.24824597
153	0xbea3cd7d	-0.31992713
154	0xbe7657ca	-0.24056926
155	0xbe6eae46	-0.23308668
156	0xbcef1769	-0.029185968
157	0xbc6f45ef	-0.014604076
158	0x3ca0b4a7	0.019617392
159	0xbc8e21a8	-0.017350033
160	0xbd0d5eeb	-0.03451435
161	0x3c5252e2	0.012837144
162	0x3d9603e9	0.073249646
163	0x3da3e287	0.08002191
164	0x3dec81f7	0.11548226
165	0x3d769a56	0.06020578
166	0x3a2684e2	0.00063521985
167	0xbcfebba8	-0.03109534
168	0xbd0786ad	-0.03308742
169	0x3b49859b	0.00307498
170	0x3cb7135c	0.022348098
171	0xbd2569a8	-0.040383965
172	0x3c9aa4f6	0.018877488
173	0xbd41cd2e	-0.047314815
174	0x3d0ed6fc	0.034872994
175	0x3d4a88fc	0.049447045
176	0xbc0ba8df	-0.008524149
177	0x3d2833c5	0.041064996
178	0xbe460459	-0.19337596
179	0xbe2bf3cf	-0.16792224
180	0xbe6dbe24	-0.23217064
181	0xbe0c59fb	-0.137062
182	0xbdfd44bd	-0.123666264
183	0x3d472389	0.048617873
184	0xbc430b56	-0.011904558
185	0x3d48789f	0.04894316
186	0x3dc2a3f4	0.09503928
187	0x3adbe90e	0.001677783
188	0xbae9f1b1	-0.0017848519
189	0x3d81b037	0.063324384
190	0x3d461101	0.04835606
191	0x3ca60072	0.020263884
192	0x3dbecf13	0.0931684
193	0x3a0ca0a6	0.00053645147
194	0xbd69aab8	-0.057047576
195	0xbd51f3a1	-0.051257733
196	0x3d54a408	0.051914245
197	0x3d624fcc	0.05525188
198	0xbda68f34	-0.081327826
199	0xbc988a36	-0.018620592
200	0xbd842470	-0.064522624
201	0xbd663ea6	-0.05621209
202	0xbdb1cba3	-0.08681419
203	0x3cd63eb3	0.026152944
204	0x3d57e9cb	0.052713197
205	0xbd51b567	-0.05119839
206	0xbd786e28	-0.06065193
207	0xbe19b3d1	-0.15010001
208	0xbe16c8e3	-0.1472507
209	0xbd833e1e	-0.06408332
210	0xbd148a69	-0.03626481
211	0x3d59ec92	0.053204127
212	0x3c98e9c8	0.018666163
213	0x3de68617	0.11256044
214	0xbbff7bae	-0.007796726
215	0x3da8f9c1	0.08250762
216	0x3dda9704	0.10673335
217	0x3da73536	0.08164446
218	0x3d9c1e0c	0.076229185
219	0x3d23f081	0.040024284
220	0xbd6d828e	-0.057985835
221	0xbd3315af	-0.04372185
222	0x3d1a9d1f	0.0377475
223	0xbd021aa0	-0.031763673
224	0xbd7a75e8	-0.0611476
225	0x3d516599	0.05112228
226	0x3d1b3de1	0.03790081
227	0xbd903aed	-0.07042489
228	0x3c0b1ff4	0.008491505
229	0xbdab1c58	-0.083550155
230	0xbd77321d	-0.060350526
231	0x3d81c9b5	0.06337301
232	0x3bbb1914	0.0057097767
233	0xbade2f0c	-0.0016951277
234	0xbd4d24a1	-0.05008376
235	0xbde2a52d	-0.11066661
236	0xbe273297	-0.16327892
237	0xbd9964e1	-0.07489944
238	0xbc3d1c29	-0.011542358
239	0x3da7186b	0.08158954
240	0x3de625db	0.11237689
241	0x3d8028d4	0.06257787
242	0x3bfd749c	0.007734848
243	0xbd729058	-0.05921969
244	0x3c939475	0.018015126
245	0x3c34bd68	0.011031486
246	0xbd002ceb	-0.031292837
247	0xbb1c6b0c	-0.0023867516
248	0x3a6f1a13	0.0009121012
249	0xbb82a9db	-0.0039875335
250	0x3d8fd8b0	0.07023752
251	0x3d04c6d9	0.0324162
252	0x3d5eb4ef	0.05437177
253	0x3cf06d3b	0.02934896
254	0xbd44d285	-0.04805233
255	0x3d675f60	0.05648744

layers.0.bias f4 [128]
0	0x3b1af02e	0.0023641693
1	0x3bdf3bd1	0.0068125506
2	0x3b9b487e	0.0047388664
3	0x3c24cf8f	0.010059251
4	0xbbc62904	-0.00604737
5	0xbc93081a	-0.017948199
6	0x3bf3eb8c	0.007443851
7	0x3ccf5135	0.025307277
8	0x3c97bf93	0.018523967
9	0xbc229925	-0.009924208
10	0x3b09a3f9	0.0021002276
11	0x3c431720	0.011907369
12	0x3b869c3a	0.004107979
13	0x3a52e32b	0.0008044715
14	0x3c0678ce	0.008207513
15	0x3a39ce40	0.00070879236
16	0x3c7b89cb	0.015352677
17	0x3b805cc0	0.0039173067
18	0x3c2b15e6	0.010442233
19	0xbb7217ac	-0.003694038
20	0x3cabe158	0.020981476
21	0xbaefe971	-0.0018303824
22	0xba1fbd84	-0.00060936087
23	0xbac9ef19	-0.001540634
24	0x3c1faeda	0.009746278
25	0xbd03a15c	-0.032136306
26	0xbb7343af	-0.00371192
27	0x3c88ce45	0.01669992
28	0xbc374f3b	-0.011188324
29	0x3c924a2c	0.017857634
30	0xbbc4e095	-0.0060082176
31	0xbaafdd22	-0.0013417343
32	0xba3787e3	-0.00070011447
33	0x3cdc1933	0.026867485
34	0xbc91364e	-0.01772609
35	0xbc656d6a	-0.014003137
36	0xbbdcaa0f	-0.0067341398
37	0x3bf489e8	0.007462729
38	0x3c5f6aea	0.01363633
39	0x3cce10c2	0.025154475
40	0x3b89df0e	0.0042074984
41	0xbc514df6	-0.012774935
42	0xb8fd9cc2	-0.000120931785
43	0x3c5e1fb2	0.013557361
44	0x3c101e98	0.008796357
45	0x3c8c8f39	0.017158138
46	0x3c551bee	0.013007147
47	0xbc5d2565	-0.013497685
48	0x39fd1937	0.00048274707
49	0x3c53ea2a	0.012934247
50	0xbb022552	-0.001985867
51	0x3a0c49fe	0.0005351602
52	0xbc70cf13	-0.014697808
53	0x3c065041	0.008197845
54	0xbabfef83	-0.0014643524
55	0xbc1199cb	-0.008886765
56	0xbb3cfc6d	-0.002883698
57	0x3c44199b	0.011968995
58	0x3bd871f8	0.006605383
59	0xb9c9504d	-0.00038397536
60	0xbc118de7	-0.00888393
61	0x3a11fc59	0.0005568914
62	0xbc240b84	-0.010012511
63	0x3c695526	0.014241492
64	0x3c5c089e	0.013429789
65	0xbbc1930e	-0.005907423
66	0x3c0ab9ac	0.008467119
67	0x3bb496c2	0.005511136
68	0xbc504779	-0.012712353
69	0x3cc24db9	0.023718702
70	0x3c9a4ad6	0.018834513
71	0x3c9a3eb8	0.018828735
72	0x3bc1812d	0.0059052915
73	0x3bdfbb99	0.0068277833
74	0xbcd34b4e	-0.025792744
75	0x3bf4acaa	0.007466872
76	0xba11fb8d	-0.0005568795
77	0x3bf76534	0.007549906
78	0x3ce0f17c	0.027458899
79	0xbaa6c55c	-0.0012723613
80	0x3ce134d4	0.02749101
81	0x3c54a522	0.012978824
82	0x3b4d22aa	0.003130118
83	0x3c27641a	0.010216737
84	0x3be5f274	0.007017428
85	0xbc9dcf8b	-0.019264003
86	0xbb8e33e0	-0.00433968
87	0x3c98a837	0.018634899
88	0xbb41238c	-0.002947065
89	0x3c0a9a3c	0.008459624
90	0x3c33f0a0	0.010982662
91	0xbb608135	-0.00342567
92	0x3ba5c8ce	0.005059338
93	0x3c6ec7a6	0.014573967
94	0x3c4795ac	0.012181681
95	0x3c2e9c09	0.010657319
96	0x3c300e1f	0.010745554
97	0x39ff9490	0.00048748078
98	0x3b937189	0.0044996184
99	0x3c78b130	0.015178964
100	0x3b48d8e6	0.003064686
101	0xbb41edbe	-0.0029591168
102	0x3c9b6fe6	0.018974256
103	0xbbbc5604	-0.0057475585
104	0x3bf160f6	0.007366295
105	0x3c76aa7f	0.015055298
106	0x3be4d9de	0.0069839796
107	0x3c0234a8	0.007947125
108	0x3c30e6b1	0.010797189
109	0xbcbb35fe	-0.022852894
110	0xbbc7adad	-0.006093702
111	0x3c477029	0.012172737
112	0x3c0361a3	0.008018884
113	0x3bd74425	0.0065694028
114	0xbca65dab	-0.020308336
115	0x3c9483cb	0.01812925
116	0xb8b61b49	-8.6835185e-05
117	0x3b41ad7d	0.002955287
118	0x3cfdd517	0.030985398
119	0x3c1a83d3	0.009430843
120	0xbaf1c2d8	-0.0018444909
121	0xbc53ef6b	-0.0129355
122	0x3c2a8678	0.010408036
123	0x3cb7fa91	0.022458347
124	0x3c5f2173	0.013618815
125	0x3c49ce7c	0.012317296
126	0x3bfa2caf	0.007634721
127	0xbbc6cb5c	-0.006066723

layers.1.weight f4 [50, 128]
0	0xbdedf2df	-0.116185896
1	0x3e336c12	0.17521694
2	0xbd9cc164	-0.07654074
3	0x3e520cfc	0.20512766
4	0xbd679901	-0.0565424
5	0x3e6934a3	0.22773986
6	0x3e019d70	0.12657714
7	0xbe2ab93c	-0.16672224
8	0x3c1668a1	0.009180219
9	0x3ddc17b6	0.1074671
10	0xbe2c3181	-0.16815759
11	0xbc966fb7	-0.018363817
12	0xbdc867c6	-0.09785418
13	0xbdfd7eb3	-0.123776816
14	0x3c7cc24b	0.015427182
15	0xbcdd9578	-0.027048811
16	0xbe46b297	-0.19404064
17	0xbe36cafb	-0.17850868
18	0x3de5fbce	0.112296686
19	0xbdf25810	-0.11833203
20	0xbcb47981	-0.022030594
21	0xbe213d1b	-0.15745966
22	0x3e418684	0.1889897
23	0x3d4d4ed1	0.050123993
24	0xbe3374e1	-0.17525055
25	0x3e4fb080	0.20282173
26	0xbda40b18	-0.080099285
27	0xbd5bf90f	-0.053704318
28	0xbe6845d2	-0.22682884
29	0xbd5df2e3	-0.054186713
30	0x3deed546	0.116617724
31	0x3e431786	0.19051942
32	0x3dcc521c	0.099765986
33	0x3e1b0d57	0.15141807
34	0x3dc1ceda	0.09463282
35	0xbe215613	-0.15755491
36	0x3d89ae44	0.06722692
37	0x3e37c64e	0.17946741
38	0xbdc18af4	-0.09450331
39	0xbd22b557	-0.03972372
40	0x3e2677aa	0.16256586
41	0xbcfa8f08	-0.03058578
42	0xbd87fc91	-0.0663997
43	0xbde938aa	-0.11387761
44	0xbe0c836b	-0.13722007
45	0xbc813f32	-0.015777204
46	0xbd5a0b01	-0.05323315
47	0x3d629001	0.055313114
48	0xbdf5532e	-0.11978756
49	0xbc2764f1	-0.010216937
50	0x3e5df8c6	0.21676931
51	0xbd46a7b5	-0.04849978
52	0x3d73fc6c	0.0595669
53	0x3e56fbfe	0.20994565
54	0xbe3ab167	-0.18231736
55	0xbc8de072	-0.017318938
56	0xbdf80eb3	-0.12112179
57	0xbd320a4f	-0.043466862
58	0xbcbd94a0	-0.023142159
59	0x3d9178d3	0.071031235
60	0x3e88e0d6	0.26734036
61	0xbe753bcd	-0.23948593
62	0xbd6ba221	-0.057527665
63	0xbd160a14	-0.036630705
64	0xbe17ba81	-0.1481724
65	0x3ce59905	0.028027067
66	0xbe51497b	-0.20438187
67	0xbe1055b1	-0.14095189
68	0xbe2c26f7	-0.16811739
69	0x3d2cfd8d	0.042233992
70	0x3dc8d180	0.09805584
71	0x3e6c372d	0.23067923
72	0x3e212076	0.15735039
73	0x3ce6337e	0.028100725
74	0xbd0112ee	-0.031512193
75	0x3dc31c8a	0.09526928
76	0xbe37b2dd	-0.17939325
77	0x3e2d50b6	0.1692532
78	0xbdf2ef91	-0.118621
79	0x3daf529a	0.08560677
80	0x3c5797c4	0.013158742
81	0xbd9e8eea	-0.077421024
82	0xbd6e5be8	-0.058193117
83	0x3dba046b	0.09082874
84	0xbde7b4e6	-0.113138005
85	0x3c7e158d	0.015508068
86	0x3df26a8b	0.11836728
87	0xbd80100e	-0.06253062
88	0xbd9db25b	-0.07700034
89	0x3e76e5a7	0.24111043
90	0x3e135761	0.14388801
91	0xbc5f714e	-0.013637854
92	0x3d2c46e1	0.042059783
93	0xbe44f09c	-0.1923241
94	0x3e7195bf	0.2359228
95	0x3c1c79b5	0.009550502
96	0xbe823ffc	-0.2543944
97	0xbd60d57d	-0.0548911
98	0x3ceb6be7	0.028737975
99	0xbe09db3a	-0.13462535
100	0xbe3e1c90	-0.18565583
101	0x3d9cf215	0.07663361
102	0x3dfff509	0.124979086
103	0xbdb678fd	-0.089097954
104	0xbe16410b	-0.1467325
105	0xbccebaf6	-0.025235634
106	0x3dff28bf	0.124589436
107	0x3d94ae65	0.072598256
108	0x3d661043	0.056167852
109	0xbcb67ffa	-0.02227782
110	0x3e5c85a8	0.21535361
111	0xbdccaf49	-0.099943705
112	0x3dc47219	0.09592075
113	0x3e214877	0.157503
114	0xbdc15ac1	-0.09441138
115	0xbd08c795	-0.03339346
116	0x3db8ea40	0.09029055
117	0x3e13a587	0.14418612
118	0x3e0e587f	0.13900946
119	0x3db74db4	0.089503676
120	0xbe06d511	-0.13167216
121	0x3d88f6a0	0.06687665
122	0x3e537740	0.20650959
123	0x3ce26767	0.027637197
124	0x3e438d7e	0.19096944
125	0x3e53aa2b	0.20670383
126	0x3ea7223a	0.326433
127	0xbd5a23a5	-0.05325665
128	0x3dbf62dd	0.093450285
129	0xbecade13	-0.39622554
130	0xbc874e57	-0.016516848
131	0xbe3d88c1	-0.18509199
132	0xbafd840e	-0.0019341724
133	0xbe112833	-0.14175491
134	0xbdca4eee	-0.09878336
135	0x3da1a81d	0.07893393
136	0xbced609d	-0.028976733
137	0xbdf736f5	-0.12071029
138	0x3d391fb4	0.04519625
139	0xbe093bff	-0.13401793
140	0xbd931944	-0.071825534
141	0x3dcae197	0.09906309
142	0xbdef2a9a	-0.116780475
143	0x3dd919a5	0.106005944
144	0xbdaec539	-0.08533711
145	0x3ce9c6ec	0.028537236
146	0x3c8e63cb	0.01738157
147	0xbd572d0d	-0.0525332
148	0xbe0aafa4	-0.13543564
149	0xbd7e25fa	-0.062047936
150	0x3e327e33	0.17430954
151	0x3d924754	0.07142511
152	0xbc87be38	-0.016570196
153	0x3db35ea3	0.08758285
154	0xbccb611e	-0.024826583
155	0x3d759617	0.05995759
156	0x3d51b80c	0.05120091
157	0xbe3cb70e	-0.18429205
158	0xbd1b91bd	-0.037980784
159	0x3ccb5a1f	0.024823247
160	0x3e1b303e	0.15155122
161	0x3e3b768e	0.18306944
162	0xbcfb5254	-0.030678906
163	0x3e2d1d94	0.16905814
164	0x3dfda7d6	0.12385528
165	0xbe579bae	-0.21055481
166	0x3de48832	0.1115879
167	0xbdb3b7a7	-0.08775263
168	0xbdfe5652	-0.12418808
169	0x3dd7bfb1	0.10534609
170	0x3d59b831	0.053154174
171	0xbe7ecc71	-0.24882676
172	0xba247e95	-0.00062749657
173	0xbc7a9358	-0.015293919
174	0x3df2a84f	0.118485086
175	0xbe4b3842	-0.1984568
176	0xbe8dabe5	-0.27670208
177	0x3d3731bb	0.04472516
178	0xbdde7e93	-0.10863986
179	0xbe984ddc	-0.29746902
180	0x3df12a85	0.11775688
181	0xbdafaa5c	-0.08577415
182	0x3e1683c6	0.14698705
183	0xbca1aa15	-0.019734422
184	0x3e1d2e94	0.153498
185	0x3e0eb44e	0.13935968
186	0xbd3a144a	-0.045429505
187	0xbdd91e54	-0.10601488
188	0x3e581463	0.21101527
189	0xbddc4aa0	-0.10756421
190	0xbe0085cc	-0.1255104
191	0xbd8a8342	-0.06763317
192	0xbe69ccf1	-0.22832085
193	0xbd551aec	-0.052027628
194	0xbcdeb34e	-0.027185109
195	0xbcfe276f	-0.031024663
196	0x3e14830d	0.14503117
197	0x3e077445	0.13227947
198	0xbe1dbd47	-0.15404235
199	0xbde5d7fa	-0.11222835
200	0xbe6ec072	-0.233156
201	0xbe0395b3	-0.12850074
202	0x3d5d3708	0.05400756
203	0xbe6bcebe	-0.23028085
204	0xbcc5af7f	-0.024131535
205	0xbd357dda	-0.044309475
206	0x3ccb7818	0.024837539
207	0x3d6abda6	0.05730977
208	0xbe3c05da	-0.18361607
209	0x3e6c2f60	0.23064947
210	0xbc7d5a6a	-0.015463451
211	0x3cc5ac05	0.024129877
212	0xbd7c2ba6	-0.061565064
213	0x3e812dee	0.25230354
214	0x3e32b0e4	0.17450291
215	0xbe2b1eac	-0.16710919
216	0x3dce052f	0.100595824
217	0xbe8060a6	-0.25073737
218	0x3ca9df95	0.020736495
219	0xbdc74939	-0.09730763
220	0xbd6c0b97	-0.05762824
221	0x3d46f8ec	0.048577234
222	0x3db53794	0.08848491
223	0x3e261fd1	0.16223074
224	0xbe7e8174	-0.2485407
225	0x3dd1be66	0.10241394
226	0x3bc3d24e	0.005975998
227	0xbd940b3c	-0.07228705
228	0xbdfc95c1	-0.12333251
229	0xbd540a29	-0.051767502
230	0xbb000d7e	-0.0019539292
231	0xbe4ae5ec	-0.1981427
232	0x3c6b3cfe	0.014357803
233	0x3d50e7c4	0.05100228
234	0xbe47b222	-0.19501546
235	0xbd9d742e	-0.07688175
236	0xbe3f964e	-0.1870968
237	0x3c1d8cde	0.009616105
238	0x3d60393c	0.054742083
239	0xbdf67205	-0.12033466
240	0xbec4cd8d	-0.38438073
241	0x3cbcce12	0.02304748
242	0x3d8eff88	0.069823325
243	0x3e4d8212	0.20069149
244	0xbe913754	-0.28362525
245	0x3e2244fe	0.15846631
246	0xbd91f0f0	-0.07126033
247	0x3e6cc42d	0.2312171
248	0x3d9636d8	0.07334679
249	0xbdf5f1c9	-0.120090075
250	0xbe2a65f4	-0.16640455
251	0x3e215599	0.15755309
252	0x3de48fd8	0.111602485
253	0x3e1fc035	0.15600665
254	0x3d7d2449	0.061802182
255	0x3e9cd0a0	0.30627918

layers.1.bias f4 [50]
0	0x3cb52f81	0.022117378
1	0x3c808ca4	0.015692063
2	0xbc546af3	-0.012964952
3	0x3dae695f	0.08516192
4	0x3d69611f	0.056977388
5	0xbbccaf54	-0.0062464867
6	0xbcee441e	-0.029085215
7	0x3b3d7087	0.0028906183
8	0xbc84b1cd	-0.016198063
9	0x3c0c602f	0.008567854
10	0xbbf8d458	-0.0075936727
11	0x3dd0e31f	0.1019957
12	0xbc57e09a	-0.013176108
13	0xbc490906	-0.012270218
14	0xbd26f062	-0.04075659
15	0x3a88b724	0.0010430557
16	0xbc854a81	-0.016270878
17	0x3d284a9c	0.041086778
18	0xba71a799	-0.00092183944
19	0xbcaeb3e1	-0.021326007
20	0x3c345e7a	0.011008853
21	0xbc1c3b57	-0.009535632
22	0xbcb71cb8	-0.022352561
23	0x3cdcf016	0.02696995
24	0x3d4ec81c	0.050483808
25	0x3d2bf6d5	0.041983444
26	0xbb1ff6ef	-0.0024408659
27	0x3d818558	0.063242614
28	0x3c244a22	0.01002744
29	0xbd1d2e7c	-0.03837441
30	0x3cb4739a	0.02202778
31	0x3c79ac7a	0.0152388755
32	0x3dcadf76	0.09905903
33	0x3a5252df	0.0008023213
34	0x3c902aba	0.017598499
35	0xbce83bd0	-0.028348833
36	0xbbbddca8	-0.0057941265
37	0x3daa861f	0.08326363
38	0x3d7522c7	0.05984762
39	0x3d250827	0.040290978
40	0xbbf37bed	-0.0074305446
41	0x3c2685f5	0.010163774
42	0x3cbe7ade	0.023251947
43	0x3d2ba39c	0.041904077
44	0xba201122	-0.00061060686
45	0xbc0ee80f	-0.008722319
46	0xbcc35718	-0.02384524
47	0x3d8de756	0.069288895
48	0x3c56b9c7	0.013105816
49	0xbca2c34d	-0.019868517

layers.2.weight f4 [10, 50]
0	0xbc0a213b	-0.008430774
1	0x3e2cca34	0.1687401
2	0x3ccdaa06	0.025105488
3	0x3e1f0096	0.15527567
4	0x3e1abd3a	0.15111247
5	0x3d1dc7fc	0.038520798
6	0x3e5d7936	0.2162827
7	0x3cd5ba1e	0.026089724
8	0x3d7602cf	0.060061272
9	0xbde96ef0	-0.11398113
10	0xbe41679a	-0.18887177
11	0x3dd1f141	0.10251094
12	0xbe3403d8	-0.17579591
13	0xbdf53368	-0.119726956
14	0x3e4e3ad9	0.20139636
15	0xbe875648	-0.26433015
16	0xbe166fb9	-0.14691056
17	0xbc039f8a	-0.008033643
18	0xbc60f0c1	-0.013729275
19	0x3ea4fc88	0.32223916
20	0x3e33b608	0.17549908
21	0xbe5b92ed	-0.21442766
22	0xbdb8ce3a	-0.090237096
23	0x3e97affb	0.2962645
24	0xbe9e0a3f	-0.30867192
25	0xbe8e5e4c	-0.27806318
26	0xbd503c4e	-0.05083876
27	0x3df50029	0.11962921
28	0xbe42dfe9	-0.19030727
29	0x3daf098a	0.08546741
30	0x3e208373	0.15675144
31	0xbe6132ff	-0.2199211
32	0xbe9a1948	-0.30097413
33	0xbed00b46	-0.406336
34	0x3e425e24	0.18981224
35	0x3ddd9367	0.108191304
36	0x3e3d0eec	0.18462723
37	0x3d0d7f6f	0.03454536
38	0xbe8102cb	-0.25197443
39	0x3e8a5020	0.27014256
40	0x3e9dc38a	0.30813247
41	0xbf048c03	-0.5177614
42	0xbeb9d0a8	-0.36292005
43	0xbe6f2b9c	-0.2335648
44	0xbe39fed2	-0.18163612
45	0x3d853b56	0.06505458
46	0xbe4e944e	-0.20173761
47	0x3e000345	0.12501247
48	0xbe2607e3	-0.16213946
49	0xbb7c0fec	-0.0038461639
50	0x3e4ec567	0.2019249
51	0x3e714d7c	0.23564714
52	0x3e566260	0.20935965
53	0xbe838ef8	-0.25695014
54	0xbd43ec73	-0.047832917
55	0x3db8cb75	0.09023181
56	0x3ea41133	0.32044372
57	0xbdf5d794	-0.12004009
58	0xbea9a534	-0.33133852
59	0xbe93fca3	-0.28903684
60	0xbe6b4344	-0.22974879
61	0xbdc74070	-0.09729087
62	0xbd228450	-0.039676964
63	0xbdd4c06e	-0.103882656
64	0xbe721989	-0.23642553
65	0xbd26db51	-0.0407365
66	0x3e18dce8	0.14928019
67	0x3da7a89d	0.08186457
68	0x3eace900	0.33771515
69	0xbde6e490	-0.112740636
70	0xbeae0b9c	-0.33993232
71	0xbc743112	-0.014904277
72	0x3ead8a72	0.33894688
73	0xbea10ba1	-0.31454185
74	0x3e63b143	0.22235589
75	0xbe704d9a	-0.23467103
76	0xbd910403	-0.07080843
77	0xbdfa530c	-0.12222871
78	0x3e4a986a	0.19784704
79	0xbdc5b900	-0.096544266
80	0xbdbe2fe0	-0.09286475
81	0xbec3260b	-0.38114962
82	0xbce6dfca	-0.028182883
83	0x3ea60e7a	0.3243292
84	0x3e02c3f1	0.12770058
85	0x3daae836	0.08345072
86	0x3d01d40b	0.03169636
87	0xbe70924a	-0.23493305
88	0xbe87c29d	-0.26515666
89	0xbdc603f3	-0.09668722
90	0x3dcd0f63	0.100127004
91	0x3e6ea50a	0.23305145
92	0xbc884d85	-0.016638527
93	0x3d938dca	0.072047785
94	0xbe5af36c	-0.2138192
95	0xbd1c6c20	-0.038189054
96	0x3dda5aaa	0.10661824
97	0xbde30c56	-0.11086337
98	0x3e692cff	0.22771071
99	0xbeb7377f	-0.35784528
100	0x3e011222	0.12604573
101	0xbd484a54	-0.04889901
102	0x3cc31570	0.023813933
103	0xbea1fcb2	-0.31638104
104	0xbe65e4e0	-0.2245059
105	0xbdd65b78	-0.10466665
106	0xbe982c2d	-0.29721203
107	0xbea5e417	-0.3240058
108	0x3e421eec	0.18957108
109	0x3e9efbcd	0.31051484
110	0x3e3ae399	0.18250884
111	0xbde02584	-0.109446555
112	0x3e8285ad	0.25492612
113	0xbe61fc68	-0.22068942
114	0xbc4d1445	-0.01251704
115	0x3e965812	0.29364067
116	0x3e89dfb6	0.2692849
117	0x3e071999	0.13193358
118	0xbe4b3bde	-0.19847056
119	0xbd121de9	-0.035673056
120	0x3e8c25b6	0.2737252
121	0xbe999b76	-0.3000142
122	0x3eac776e	0.33684868
123	0xbd57f1ef	-0.05272096
124	0x3e9509a2	0.29108912
125	0x3c27afb6	0.010234764
126	0x3e72e7dc	0.2372126
127	0xbd45a96f	-0.048257288
128	0xbe945a9a	-0.28975374
129	0x3e2f7433	0.1713417
130	0xbb079b8b	-0.0020692076
131	0x3e103827	0.1408392
132	0xbca06efe	-0.019584175
133	0xbe7a3a18	-0.24436224
134	0x3c54854f	0.012971236
135	0xbe88723c	-0.26649654
136	0x3e003215	0.12519105
137	0x3d920d61	0.07131458
138	0xbe60a227	-0.21936856
139	0xbe81346e	-0.25235313
140	0x3e809201	0.25111392
141	0xbeb453b6	-0.35220116
142	0x3df271c2	0.11838104
143	0x3e7f24f3	0.24916439
144	0xbece74f3	-0.403236
145	0x3e446bc5	0.19181736
146	0xbe2ff985	-0.17185028
147	0x3e636d7f	0.22209738
148	0xbea28e8e	-0.31749386
149	0xbab3703e	-0.0013690067
150	0xbd815c5e	-0.06316446
151	0x3e63f7a6	0.22262439
152	0xbca41acc	-0.020032309
153	0xbe3cea5c	-0.18448776
154	0xbeca6922	-0.39533335
155	0x3d73ca61	0.059519175
156	0xbe861a44	-0.26191914
157	0xbe9ce949	-0.30646732
158	0x3e88904b	0.26672587
159	0xbc6ae697	-0.014337203
160	0x3d81280f	0.06306469
161	0x3e204f25	0.15655191
162	0xbe80da80	-0.25166702
163	0xbe0b7526	-0.13618907
164	0xbded5cb2	-0.11589946
165	0x3df70da5	0.12063149
166	0xbe067224	-0.13129479
167	0x3e1f62f6	0.15565094
168	0x3e5820be	0.2110624
169	0x3d3484d6	0.044071995
170	0xbd02ff68	-0.031981856
171	0x3e6a0c62	0.22856286
172	0xbeb5ec1c	-0.355317
173	0x3e6afcc5	0.22947986
174	0xbe899f10	-0.26879168
175	0xbe222e57	-0.1583799
176	0x3dec3e39	0.115353055
177	0xbeb4989b	-0.3527268
178	0x3eb1cb97	0.3472564
179	0xbda7298f	-0.081622235
180	0xbdd0df3c	-0.101988286
181	0x3e3f21ee	0.18665287
182	0x3e2e7330	0.17036128
183	0x3e8be8d4	0.2732607
184	0x3e1dd7e5	0.15414388
185	0xbe6f37a9	-0.23361076
186	0xbd1b6d13	-0.03794582
187	0xbd301c32	-0.04299564
188	0xba5c7a46	-0.0008410554
189	0xbe5680b9	-0.20947541
190	0x3e543bdd	0.20725961
191	0xbd10d99e	-0.035363786
192	0xbc84a566	-0.01619215
193	0xbe84d6e1	-0.2594519
194	0xbd230067	-0.039795306
195	0xbe15c1d4	-0.14624721
196	0x3e150f0a	0.14556518
197	0x3e071b53	0.13194017
198	0xbe3eceb8	-0.18633544
199	0x3e7315b2	0.23738745
200	0x3e0b8c4d	0.13627739
201	0xbd473911	-0.048638407
202	0xbe4a2c55	-0.19743474
203	0xbe9bf9ac	-0.30463922
204	0xbe3aec7d	-0.18254276
205	0x3d0202de	0.031741016
206	0xbea50f9a	-0.32238466
207	0xbe47a736	-0.1949738
208	0xbee55a61	-0.44795516
209	0xbd397d42	-0.04528547
210	0xbead7292	-0.33876473
211	0xbe570925	-0.20999582
212	0x3d540539	0.051762793
213	0x3d150f15	0.036391336
214	0xbc85e6d0	-0.016345412
215	0x3e5c1a56	0.21494421
216	0x3e25ab80	0.16178703
217	0xbecce1b5	-0.4001595
218	0x3e0fe3d8	0.14051759
219	0xbde3c3df	-0.11121344
220	0x3e0b143d	0.13581939
221	0x3e499b6e	0.19688198
222	0x3e632a96	0.22184214
223	0xbbb74336	-0.005592729
224	0xbe5c8365	-0.21534498
225	0x3e72ff04	0.23730093
226	0x3e5a1964	0.21298748
227	0x3e8ec470	0.27884245
228	0xbe126840	-0.1429758
229	0x3e5b4f7b	0.21417038
230	0xbec706c1	-0.3887234
231	0xbe324fa9	-0.174132
232	0x3df28fbc	0.118438214
233	0x3e0a7a24	0.13523155
234	0x3eb3e56c	0.35135972
235	0x3cc13e70	0.023589343
236	0xbe1e930b	-0.1548578
237	0x3ead169d	0.33806315
238	0x3e67c5b4	0.22634012
239	0xbe58495f	-0.21121739
240	0xbea1688f	-0.31525084
241	0xbe95b009	-0.29235867
242	0x3ea87dcf	0.32908484
243	0xbe8a8092	-0.27051216
244	0xbec8d95d	-0.39228335
245	0xbc8fdf34	-0.017562486
246	0xbec5a111	-0.38599446
247	0x3eb0aeca	0.34508353
248	0x3e682e9d	0.22674032
249	0xbecab764	-0.3959304
250	0xbeb75494	-0.35806715
251	0xbe5133c1	-0.20429899
252	0xbdbb0776	-0.091322824
253	0xbe7e48d1	-0.24832465
254	0xbe3e2618	-0.18569219
255	0xbe0575e3	-0.13033251

layers.2.bias f4 [10]
0	0xbb7aa6ab	-0.0038246315
1	0xbc2608e3	-0.010133955
2	0xbc8db916	-0.01730017
3	0xbc6a25e6	-0.014291262
4	0x3d3da0b7	0.046295848
5	0xbceef865	-0.029171178
6	0x3c313a3f	0.01081711
7	0xbd0231bc	-0.03178571
8	0x3d991279	0.074742265
9	0x3d271038	0.04078695
