static/model/digit_model.pth (torch, 409264 bytes, 4 tensors)

layers.0.weight f4 [128, 784]
-0.07572966 -0.06801721 0.050335713 -0.040854074 -0.056286857 0.06195789 0.045466058 0.029017352
-0.027225453 -0.06767233 0.055019654 0.016714007 0.06640706 0.04084625 0.0042368174 -0.077918306
-0.05151164 -0.018318534 -0.013463505 -0.05762524 0.020186968 -0.0030003563 -0.056743704 -0.036890436
0.022927284 -0.031039082 -0.016159497 -0.0011122227 0.040003136 -0.009928659 -0.057476666 0.0530122
-0.06318836 -0.010145202 -0.075106405 -2.2351742e-06 -0.05594722 -0.02440776 0.047639854 0.041594855
0.08014717 -0.06946999 -0.07406843 -0.07485302 -0.027880598 -0.06944972 -0.05003171 -0.05010891
0.07536686 0.077963434 0.06343206 -0.07559916 -0.015974857 -0.0798008 -0.04759255 -0.06293547
-0.016343236 -0.028082315 -0.015631177 -0.067949176 0.053583212 -0.004939303 -0.07091029 0.026592493
-0.07165023 -0.023018077 -0.04587556 0.021091744 0.06401884 -0.052094623 0.010115907 0.076941155
-0.059065733 0.063835375 0.061870746 0.03752605 -0.078879565 -0.05408466 -0.0052738264 0.021085508
-0.07494305 -0.00057791173 0.018040769 -0.043485057 -0.033029605 -0.022206519 -0.0703609 0.02675572
-0.024458162 0.049524494 -0.05091638 -0.03162133 0.06694306 0.034440033 0.04101403 0.06367775
-0.0066413805 0.061914407 0.013593547 0.014535673 0.04042431 -0.010560982 -0.058729336 -0.03539254
0.021039598 -0.0046991184 -0.020121299 -0.009435333 -0.027105633 0.051560827 0.039447136 -0.07628856
-0.053072456 -0.034906145 0.040478572 -0.03707826 0.015014939 -0.067294106 -0.03218012 0.06229017
-0.03581375 0.066194616 0.0506986 -0.009624273 0.029981382 0.055718876 -0.019579053 0.07949678
0.008511126 0.032222077 0.055777974 0.00082617253 0.07132157 -0.04643267 -0.046334326 -0.026351605
-0.038748007 0.042093284 0.010711148 0.017695278 -0.011517167 0.051350452 0.049563266 -0.07730084
0.05601228 -0.023400541 -0.07867001 -0.076717444 0.026563458 -0.038225796 0.043420747 0.02473963
-0.070278555 -0.011602648 0.067730226 0.054328106 0.07517486 0.0500888 -0.058579363 -0.028833859
-0.07258398 -0.053961657 0.05309301 -0.07621676 0.021103062 0.04852415 0.0069171935 -0.033677466
0.057911046 -0.0313399 0.061423697 0.0031122118 0.05908116 0.07209087 -0.062124733 0.077707745
-0.06382805 -0.0068538487 -0.07704586 0.018572308 -0.01694242 0.024944618 0.047214277 -0.0097588375
-0.037542805 -0.041993603 0.046285294 0.07607835 0.042635746 0.056673683 0.032440417 0.006002076
0.019382223 -0.045893993 0.024340406 -0.06600211 -0.06296517 -0.041162692 0.033306874 -0.064377286
0.024600834 -0.022680704 0.076506086 -0.057052627 0.07803846 -0.0686455 -0.012713566 0.034067236
-0.07792553 -0.009927586 0.0074865445 -0.04280881 0.029791176 0.07351517 0.0026036426 -0.014905736
-0.07231794 -0.069681436 -0.061885014 0.041436322 -0.054403964 -0.0093422085 0.06479638 -0.045261938
-0.056031216 0.06943118 0.0728128 -0.032677345 -0.043125123 0.08089963 0.056769006 -0.07071095
-0.041143045 0.046057515 0.0647166 0.02303844 0.07378974 0.010368489 -0.0447928 0.034338824
-0.07031667 -0.025783706 -0.07693141 -0.07940572 -0.06823093 0.0057350844 0.06262151 -0.037096467
-0.07935421 0.03515093 0.05206173 0.06254784 0.072177865 -0.06315532 -0.020289272 0.00093133
00000000: 2718 9bbd 9b4c 8bbd d22c 4e3d 9a56 27bd
00000010: 0c8d 66bd 8ec7 7d3d 9e3a 3a3d ccb5 ed3c
00000020: ea07 dfbc ca97 8abd 4a5c 613d d0eb 883c
00000030: 6d00 883d 664e 273d 00d5 8a3b a293 9fbd
00000040: dffd 52bd c010 96bc 0896 5cbc 7208 6cbd
00000050: 245f a53c a0a1 44bb 166c 68bd 6d1a 17bd
00000060: 00d2 bb3c ac45 febc ec60 84bc 00c8 91ba
00000070: 54da 233d d0ab 22bc a76c 6bbd 5223 593d
00000080: e668 81bd 1038 26bc 63d1 99bd 0000 16b6
00000090: ea28 65bd c8f2 c7bc 0222 433d 5e5f 2a3d
000000a0: 3324 a43d 4846 8ebd 30b1 97bd 8a4c 99bd
000000b0: da65 e4bc a83b 8ebd 0dee 4cbd 003f 4dbd
000000c0: f159 9a3d 4bab 9f3d abe8 813d bbd3 9abd
000000d0: b4dd 82bc 9a6e a3bd 68f0 42bd 50e4 80bd
000000e0: 40e2 85bc e20c e6bc f40c 80bc f028 8bbd
000000f0: 127a 5b3d e0d9 a1bb 6a39 91bd 80d8 d93c
00000100: 5bbd 92bd 6890 bcbc 03e8 3bbd 98c8 ac3c
00000110: 4f1c 833d 2c61 55bd 30bd 253c 5393 9d3d
00000120: e9ee 71bd 1fbc 823d 2e6c 7d3d eab4 193d
00000130: 9c8b a1bd e087 5dbd 10d0 acbb 84bb ac3c
00000140: be7b 99bd 007f 17ba 3cca 933c 631d 32bd
00000150: 0d4a 07bd 72ea b5bc 6019 90bd d02e db3c
00000160: 7c5c c8bc 32da 4a3d b28d 50bd 5e85 01bd
00000170: 7119 893d fe10 0d3d 54fe 273d 7b69 823d
00000180: f09f d9bb f699 7d3d 78b7 5e3c 0827 6e3c
00000190: f693 253d f807 2dbc 2c8e 70bd c5f7 10bd
000001a0: 3c5b ac3c 10fb 99bb 6cd5 a4bc a896 1abc
000001b0: a20c debc 7231 533d 5293 213d 2d3d 9cbd
000001c0: 8162 59bd bff9 0ebd dccc 253d 60df 17bd
000001d0: 3801 763c 7ed1 89bd 4dcf 03bd fa23 7f3d
000001e0: 70b1 12bd 0b91 873d 56a9 4f3d 20af 1dbc
000001f0: 849b f53c 7a39 643d 4064 a0bc 35cf a23d
00000200: 4072 0b3c 4cfb 033d 7277 643d 8093 583a
00000210: 0b11 923d 2f30 3ebd 10c9 3dbd 52df d7bc
00000220: 3bb6 1ebd 026a 2c3d d07d 2f3c b0f5 903c
00000230: 80b2 3cbc da54 523d da02 4b3d e74f 9ebd
00000240: 226d 653d 7eb2 bfbc be1d a1bd 091e 9dbd
00000250: 9c9b d93c a792 1cbd f4d9 313d c4aa ca3c
00000260: 34ee 8fbd 0819 3ebc 25b6 8a3d 2687 5e3d
00000270: 47f5 993d ea29 4d3d eaf0 6fbd fc34 ecbc
00000280: e9a6 94bd e606 5dbd 0e78 593d 8817 9cbd
00000290: 54e0 ac3c 42c1 463d a0a9 e23b 62f1 09bd
000002a0: 2234 6d3d 445e 00bd 6a97 7b3d 40f6 4b3b
000002b0: 16ff 713d 61a4 933d 8176 7ebd 3d25 9f3d
000002c0: 48b8 82bd 4096 e0bb 38ca 9dbd f424 983c
000002d0: d4ca 8abc a858 cc3c c263 413d 88e3 1fbc
000002e0: 7cc6 19bd 7c01 2cbd a695 3d3d f7ce 9b3d
000002f0: d2a2 2e3d aa22 683d 3ee0 043d 10ad c43b
00000300: 78c7 9e3c 57fb 3bbd 8865 c73c 1d2c 87bd
00000310: e2f3 80bd 369a 28bd ca6c 083d 3dd8 83bd
00000320: b087 c93c e2cc b9bc 39af 9c3d 04b0 69bd
00000330: a1d2 9f3d 0396 8cbd 904c 50bc 168a 0b3d
00000340: 6c97 9fbd 50a7 22bc b051 f53b 4a58 2fbd
00000350: a00c f43c 1f8f 963d e0a1 2a3b 3037 74bc
00000360: 6e1b 94bd 24b5 8ebd 247b 7dbd 22b9 293d
00000370: b1d6 5ebd 1010 19bc f7b3 843d 9564 39bd
00000380: fd80 65bd ef31 8e3d e11e 953d aed8 05bd
00000390: f8a3 30bd b5ae a53d 9e86 683d e7d0 90bd
000003a0: 9c85 28bd cea6 3c3d 238a 843d 1cbb bc3c
000003b0: 131f 973d 98e0 293c a878 37bd dea6 0c3d
000003c0: 3002 90bd 5a38 d3bc 378e 9dbd 779f a2bd
000003d0: a8bc 8bbd 60ed bb3b b53f 803d 77f2 17bd
000003e0: 7684 a2bd 6cfa 0f3d ae3e 553d 1519 803d
000003f0: fdd1 933d 9457 81bd b035 a6bc 8024 743a

layers.0.bias f4 [128]
0.01 0.01 0.01 0.01 0.01 0.01 0.01 0.01
0.01 0.01 0.01 0.01 0.01 0.01 0.01 0.01
0.01 0.01 0.01 0.01 0.01 0.01 0.01 0.01
0.01 0.01 0.01 0.01 0.01 0.01 0.01 0.01
0.01 0.01 0.01 0.01 0.01 0.01 0.01 0.01
0.01 0.01 0.01 0.01 0.01 0.01 0.01 0.01
0.01 0.01 0.01 0.01 0.01 0.01 0.01 0.01
0.01 0.01 0.01 0.01 0.01 0.01 0.01 0.01
0.01 0.01 0.01 0.01 0.01 0.01 0.01 0.01
0.01 0.01 0.01 0.01 0.01 0.01 0.01 0.01
0.01 0.01 0.01 0.01 0.01 0.01 0.01 0.01
0.01 0.01 0.01 0.01 0.01 0.01 0.01 0.01
0.01 0.01 0.01 0.01 0.01 0.01 0.01 0.01
0.01 0.01 0.01 0.01 0.01 0.01 0.01 0.01
0.01 0.01 0.01 0.01 0.01 0.01 0.01 0.01
0.01 0.01 0.01 0.01 0.01 0.01 0.01 0.01
00000000: 0ad7 233c 0ad7 233c 0ad7 233c 0ad7 233c
00000010: 0ad7 233c 0ad7 233c 0ad7 233c 0ad7 233c
00000020: 0ad7 233c 0ad7 233c 0ad7 233c 0ad7 233c
00000030: 0ad7 233c 0ad7 233c 0ad7 233c 0ad7 233c
00000040: 0ad7 233c 0ad7 233c 0ad7 233c 0ad7 233c
00000050: 0ad7 233c 0ad7 233c 0ad7 233c 0ad7 233c
00000060: 0ad7 233c 0ad7 233c 0ad7 233c 0ad7 233c
00000070: 0ad7 233c 0ad7 233c 0ad7 233c 0ad7 233c
00000080: 0ad7 233c 0ad7 233c 0ad7 233c 0ad7 233c
00000090: 0ad7 233c 0ad7 233c 0ad7 233c 0ad7 233c
000000a0: 0ad7 233c 0ad7 233c 0ad7 233c 0ad7 233c
000000b0: 0ad7 233c 0ad7 233c 0ad7 233c 0ad7 233c
000000c0: 0ad7 233c 0ad7 233c 0ad7 233c 0ad7 233c
000000d0: 0ad7 233c 0ad7 233c 0ad7 233c 0ad7 233c
000000e0: 0ad7 233c 0ad7 233c 0ad7 233c 0ad7 233c
000000f0: 0ad7 233c 0ad7 233c 0ad7 233c 0ad7 233c
00000100: 0ad7 233c 0ad7 233c 0ad7 233c 0ad7 233c
00000110: 0ad7 233c 0ad7 233c 0ad7 233c 0ad7 233c
00000120: 0ad7 233c 0ad7 233c 0ad7 233c 0ad7 233c
00000130: 0ad7 233c 0ad7 233c 0ad7 233c 0ad7 233c
00000140: 0ad7 233c 0ad7 233c 0ad7 233c 0ad7 233c
00000150: 0ad7 233c 0ad7 233c 0ad7 233c 0ad7 233c
00000160: 0ad7 233c 0ad7 233c 0ad7 233c 0ad7 233c
00000170: 0ad7 233c 0ad7 233c 0ad7 233c 0ad7 233c
00000180: 0ad7 233c 0ad7 233c 0ad7 233c 0ad7 233c
00000190: 0ad7 233c 0ad7 233c 0ad7 233c 0ad7 233c
000001a0: 0ad7 233c 0ad7 233c 0ad7 233c 0ad7 233c
000001b0: 0ad7 233c 0ad7 233c 0ad7 233c 0ad7 233c
000001c0: 0ad7 233c 0ad7 233c 0ad7 233c 0ad7 233c
000001d0: 0ad7 233c 0ad7 233c 0ad7 233c 0ad7 233c
000001e0: 0ad7 233c 0ad7 233c 0ad7 233c 0ad7 233c
000001f0: 0ad7 233c 0ad7 233c 0ad7 233c 0ad7 233c

layers.1.weight f4 [10, 128]
-0.0836191 0.07415788 -0.044988215 0.032359272 -0.12892179 0.19442044 -0.17427424 0.1067764
0.15423833 -0.17112324 0.09791906 -0.12172802 -0.01021795 0.09641586 -0.10917667 -0.05850029
0.008825302 -0.12848815 0.1362481 0.07538341 -0.14103705 0.20008518 0.12220241 -0.17733839
0.18312208 0.20787854 -0.06557952 -0.0723965 -0.07619801 0.16309355 0.12251417 0.17237
-0.1898967 0.19296734 -0.20182334 0.03260161 0.14575632 -0.1282007 0.16275407 0.123506114
-0.18647216 0.15368395 0.034879565 0.20396729 -0.024161562 -0.0070228577 -0.004120052 0.015879795
0.08644299 -0.13980658 -0.03847009 0.07319425 -0.19064653 0.044823334 -0.09979791 0.09586747
-0.054535598 -0.10512515 -0.045553267 0.19827615 0.052372172 0.101990625 -0.07505661 0.19954164
-0.07402754 0.16545646 -0.18260524 0.010448784 -0.15016292 0.008427486 0.040796444 0.06304093
0.20760246 -0.095676094 0.029838666 -0.1186929 0.024968356 0.055986807 -0.17357942 -0.05284317
-0.08104102 -0.059442237 0.068599746 -0.16918667 -0.07542579 -0.12105942 -0.06426096 -0.1241746
-0.17419812 -0.11153363 0.028388336 0.15586708 -0.022414416 0.005084768 0.1709251 0.16867112
-0.14671107 -0.18051913 0.04550053 -0.12513398 -0.010953724 -0.036457628 -0.097142845 0.16310142
-0.05030085 0.090575084 0.09272577 -0.03774357 0.029187039 -0.052648157 -0.0824728 -0.05122915
0.13002522 0.20119168 0.14144008 0.052762315 0.010572791 0.075446025 0.024254128 0.025447309
-0.09940666 0.18215774 0.007750213 0.19698621 -0.02398175 -0.018179804 -0.07414034 0.18924622
0.14906575 -0.14603606 0.1330152 -0.12640521 0.20079435 0.011801854 0.19383033 0.09656648
0.18791924 -0.17066132 0.07224698 0.08891721 -0.019182637 0.18264468 -0.0165281 0.12899719
-0.17074865 0.05167438 -0.09297577 -0.07732771 -0.0109734535 0.10469882 0.062011078 -0.12115114
-0.13430539 0.060194984 -0.019275576 -0.1262112 0.17980926 -0.1110124 0.009022564 -0.05328892
-0.13635516 -0.19312382 0.13214312 -0.0646797 0.103285685 -0.034235448 -0.09670333 -0.04285367
0.025473252 0.09740631 -0.10578881 -0.11127708 -0.1050999 0.11444385 0.13628651 -0.09457862
-0.060039595 -0.13425642 0.1392936 -0.08016758 0.04237114 0.19267203 0.12671743 -0.1068191
0.16180198 -0.0017070919 0.13748337 -0.08147062 -0.16292882 -0.12782621 0.090487316 -0.058731496
0.2005838 0.07035364 -0.11665257 0.19224672 0.19807892 -0.05673942 -0.18622318 -0.04289098
0.1377735 0.05911286 -0.053954765 -0.05008647 0.19747697 0.015709013 0.074785665 -0.11750705
0.031453222 0.12397288 -0.068974316 -0.14065197 -0.005031079 0.13307358 -0.0963347 -0.062259465
-0.1841485 -0.20471914 -0.06937389 -0.07259211 0.122916296 0.10448976 -0.024923623 -0.015103802
-0.16840371 0.028681248 -0.049767524 -0.17585884 0.07961826 0.15945731 -0.065246984 0.14035563
0.019537657 0.16354974 -0.19646958 0.13357176 -0.17434506 -0.05581227 -0.060761362 0.20712887
-0.054822817 0.037625745 -0.10506363 -0.20131402 0.16536887 -0.111464724 -0.1363791 -0.080975324
0.16553824 0.11207192 -0.1837306 -0.19822672 0.058287933 0.20772482 -0.17063586 -0.054632306
00000000: 7e40 abbd 16e0 973d 9045 38bd 288b 043d
00000010: 1304 04be 2716 473e f274 32be 96ad da3d
00000020: a7f0 1d3e ee3a 2fbe ca89 c83d 8a4c f9bd
00000030: 3069 27bc ae75 c53d 0598 dfbd 009e 6fbd
00000040: 0098 103c 6692 03be 9f84 0b3e 9e62 9a3d
00000050: 046c 10be 21e3 4c3e 4245 fa3d 3298 35be
00000060: 5b84 3b3e 1dde 543e 8e4e 86bd 9e44 94bd
00000070: b40d 9cbd ff01 273e b6e8 fa3d c381 303e
00000080: 4874 42be 3b99 453e c7aa 4ebe 4489 053d
00000090: 2541 153e 0b47 03be 01a9 263e c6f0 fc3d
000000a0: 8ff2 3ebe 535f 1d3e e0dd 0e3d cddc 503e
000000b0: 78ee c5bc 0020 e6bb 8001 87bb 5816 823c
000000c0: 0609 b13d 7529 0fbe d092 1dbd dee6 953d
000000d0: d838 43be ac98 373d d962 ccbd 2a56 c43d
000000e0: b860 5fbd db4b d7bd 1096 3abd e708 4b3e
000000f0: 3484 563d 76e0 d03d 48b7 99bd a554 4c3e
00000100: c09b 97bd 6b6d 293e defc 3abe 6031 2b3c
00000110: 4fc4 19be 7013 0a3c 2c1a 273d 9a1b 813d
00000120: bd95 543e d4f1 c3bd 3870 f43c 4315 f3bd
00000130: 708a cc3c 6c52 653d cebe 31be 1472 58bd
00000140: d6f8 a5bd b479 73bd 067e 8c3d 453f 2dbe
00000150: d678 9abd 00ee f7bd 409b 83bd 414f febd
00000160: fe60 32be be6b e4bd a88e e83c 9f9b 1f3e
00000170: 709e b7bc 209e a63b fd06 2f3e 1fb8 2c3e
00000180: 6d3b 16be 02da 38be c45e 3a3d 1f23 00be
00000190: 4077 33bc 9854 15bd d4f2 c6bd 0f04 273e
000001a0: 4408 4ebd 6e7f b93d 02e7 bd3d 0099 1abd
000001b0: a819 ef3c 98a5 57bd 80e7 a8bd a8d5 51bd
000001c0: 5525 053e 3105 4e3e abd5 103e 4c1d 583d
000001d0: 8039 2d3c 7283 9a3d 98b0 c63c e076 d03c
000001e0: b895 cbbd 8f87 3a3e 80f5 fd3b c1b6 493e
000001f0: 6075 c4bc d0ed 94bc e4d6 97bd c3c9 413e
00000200: b1a4 183e 7a8a 15be 2335 083e 5e70 01be
00000210: 099d 4d3e 905c 413c 757b 463e a6c4 c53d
00000220: e76d 403e d7c1 2ebe 3af6 933d 3a1a b63d
00000230: e824 9dbc 3507 3b3e f065 87bc d717 043e
00000240: bcd8 2ebe 84a8 533d 156a bebd fe5d 9ebd
00000250: 00ca 33bc 566c d63d 54ff 7d3d 171e f8bd
00000260: 5a87 09be 048f 763d d0e7 9dbc 823d 01be
00000270: eb1f 383e 785a e3bd 60d3 133c 7c45 5abd
00000280: b0a0 0bbe 40c2 45be 8750 073e ca76 84bd
00000290: 7287 d33d 783a 0cbd 650c c6bd 5487 2fbd
000002a0: 48ad d03c f67c c73d cea7 d8bd 3de5 e3bd
000002b0: 9e3e d7bd 8a61 ea3d b18e 0b3e 6fb2 c1bd
000002c0: 14ec 75bd 847a 09be fba2 0e3e e62e a4bd
000002d0: 5c8d 2d3d d14b 453e 37c2 013e f9c3 dabd
000002e0: 6baf 253e 80c0 dfba 71c8 0c3e 12da a6bd
000002f0: d0d6 26be e0e4 02be 6a51 b93d 7090 70bd
00000300: d765 4d3e 9215 903d 8be7 eebd 53dc 443e
00000310: 33d5 4a3e 9867 68bd 4ab1 3ebe 74ae 2fbd
00000320: 7f14 0d3e 5420 723d acff 5cbd 7827 4dbd
00000330: 6737 4a3e 30b0 803c 3a29 993d 89a7 f0bd
00000340: 18d5 003d 7ee5 fd3d 6842 8dbd 1207 10be
00000350: c0db a4bb 7144 083e 214b c5bd c803 7fbd
00000360: 6d91 3cbe e5a1 51be e613 8ebd 2cab 94bd
00000370: 8abb fb3d bafe d53d a02c ccbc f075 77bc
00000380: 0672 2cbe f0f4 ea3c 08d9 4bbd 5714 34be
00000390: e60e a33d c748 233e 36a0 85bd 63b9 0f3e
000003a0: 700d a03c 9579 273e 522f 49be 09c7 083e
000003b0: 8387 32be 689b 64bd e8e0 78bd 9719 543e
000003c0: e48d 60bd 741d 1a3d 9a2b d7bd 4325 4ebe
000003d0: 7556 293e 9e47 e4bd f6a6 0bbe 64d6 a5bd
000003e0: db82 293e f685 e53d e023 3cbe f2fb 4abe
000003f0: 54bf 6e3d d1b5 543e 2bbb 2ebe 20c6 5fbd

layers.1.bias f4 [10]
0.01 0.01 0.01 0.01 0.01 0.01 0.01 0.01
0.01 0.01
00000000: 0ad7 233c 0ad7 233c 0ad7 233c 0ad7 233c
00000010: 0ad7 233c 0ad7 233c 0ad7 233c 0ad7 233c
00000020: 0ad7 233c 0ad7 233c
