static/model/digit_model.pth (torch, 462256 bytes, 8 tensors)

layers.0.weight f4 [128, 784]
000000 b2 4d 5b 3d f6 60 1e 3d c4 3e aa 3c d4 04 80 bc
       0.053540893 0.038666688 0.020781882 -0.015627302
000010 60 84 87 3c 43 d4 88 bd 20 95 e4 3c a6 9d d5 bc
       0.016542614 -0.06681111 0.02790314 -0.02607615
000020 b0 34 b6 bb 98 48 17 3c 06 04 82 bd bb c4 a0 3d
       -0.00556048 0.009233616 -0.06348424 0.07850023
000030 58 c4 1d 3c 4c dc 81 3c c1 2c 6e bd 60 c3 a2 bd
       0.0096293315 0.015852116 -0.05814815 -0.07947421
000040 38 73 6f bc 5a 8b 49 bd e4 0f 9c bc 48 e9 98 bc
       -0.014614873 -0.04920516 -0.019050546 -0.018665925
000050 da e2 79 bd 32 f3 8a bd 90 1f 81 bd 24 0b 83 bc
       -0.061007358 -0.06784667 -0.06304848 -0.015996523
000060 a3 98 8d 3d 0c f8 95 3c 96 94 8c bd d0 4b ac bb
       0.06913879 0.018306755 -0.06864278 -0.005258061
000070 e0 25 93 bc 56 0b 9e bd 60 84 ff 3b 39 72 98 3d
       -0.017962396 -0.07717006 0.0077977628 0.07443661
000080 ec 6a dc 3c 28 d7 65 3c 81 be 2e bd 0e de dc bc
       0.026906453 0.014028348 -0.042662147 -0.026961353
000090 7a 78 78 bd 40 94 fb 3a 44 a3 21 3d d2 06 70 3d
       -0.06066177 0.0019193962 0.039462343 0.058600254
0000a0 a9 c6 87 bd 60 6e a1 3c c4 80 e9 bc 2e ee 42 3d
       -0.06629688 0.019705951 -0.028503783 0.047590427
0000b0 18 29 e7 bc 04 02 11 3d ba 9f 47 3d a0 c2 5d 3b
       -0.028217837 0.035402313 0.04873631 0.003383793
0000c0 cd fb 90 3d b1 b0 93 bd 80 5e d2 ba 54 5b f6 3c
       0.07079277 -0.072114356 -0.0016049892 0.030072846
0000d0 80 4a 47 ba 6e 5e 07 3d e4 dc 00 bd 20 20 0c bd
       -0.0007602349 0.03304904 -0.031460658 -0.034210324
0000e0 5a dd 12 3d a0 46 9b bb c0 51 29 3b 20 24 54 bb
       0.03585563 -0.0047386438 0.002583608 -0.0032370165
0000f0 14 80 70 bd 10 98 86 bd 48 fb 0e bc 70 a7 8d bb
       -0.058715895 -0.06571972 -0.008726902 -0.0043229386
000100 58 e4 54 bc 40 ac 23 3d 84 f4 71 bd 70 e7 01 3c
       -0.0129938945 0.039959192 -0.05907108 0.007928714
000110 3e 67 26 3d b6 0a 7e 3d ae d1 89 bd be 7a 15 3d
       0.040625803 0.062021933 -0.06729446 0.03649401
000120 a8 3c b5 3c e0 4c 13 bb 4b eb 16 bd 6b 15 84 bd
       0.02212365 -0.002247624 -0.036845487 -0.06449398
000130 09 6e 86 3d 20 a8 4e 3b 72 a6 77 3d 50 6c c9 3c
       0.06563956 0.0031533316 0.06046147 0.02458778
000140 50 9e 40 3c c2 1a 59 bd 06 b2 3e 3d d1 f2 91 3d
       0.011756495 -0.053004034 0.046556495 0.07126392
000150 b4 69 8e bc 7a c8 69 3d 0c 9c d1 bc 0a de 68 3d
       -0.017384388 0.057075955 -0.025587104 0.056852378
000160 ba d4 25 3d d6 e8 31 3d fd b1 6e bd 60 5c d9 3c
       0.040486075 0.04343494 -0.05827521 0.026533306
000170 46 a1 df bc a2 d3 61 3d f1 69 a3 3d 90 88 b2 bb
       -0.02729858 0.05513347 0.07979191 -0.0054484084
000180 38 31 89 3c 7b 86 16 bd 0e ee 7a 3d a2 f5 b5 bc
       0.016747102 -0.036749344 0.061262183 -0.022211853
000190 52 2e 36 3d e0 93 c1 bb 54 84 f3 3c ea df bb bc
       0.04447777 -0.0059075207 0.029726185 -0.022933919
0001a0 d3 62 83 3d 4d ba 46 bd 00 fe b4 b9 e8 81 9e bd
       0.064153336 -0.048517514 -0.0003452152 -0.077396214
0001b0 80 8a c2 ba d5 bb a0 3d a2 73 6d 3d 78 82 a8 bc
       -0.0014842302 0.07848326 0.057971604 -0.020570025
0001c0 cb 1d 86 bd ac a1 06 bd dc 9c ed 3c 70 e7 25 3c
       -0.06548651 -0.032869026 0.02900546 0.01012598
0001d0 59 41 9e bd 8e fd fe bc 34 11 db bc 21 81 96 bd
       -0.07727308 -0.031126764 -0.026741602 -0.07348848
0001e0 a0 5c 91 bd 7e d6 57 bd 54 af 91 bc 9c e1 11 bd
       -0.07097745 -0.05269479 -0.017783798 -0.03561555
0001f0 32 2b 68 3d d0 c3 cd 3c 10 71 5e 3c b0 8a 9e bd
       0.05668182 0.025117785 0.013576761 -0.07741296
000200 90 df 35 3c 2a 74 4a 3d 37 a6 92 3d bb 19 a1 3d
       0.011100665 0.04942719 0.07160609 0.07866236
000210 8f 1a 3e bd c4 2e 2b bd 10 42 96 bd 30 30 97 bc
       -0.046412047 -0.041792646 -0.07336819 -0.018455595
000220 00 c1 99 bc a5 9c a5 3d d4 c2 21 3d f5 51 81 3d
       -0.018768787 0.08086518 0.039492443 0.0631446
000230 40 d2 c2 3b 8e 2b 12 bd e8 09 4d bc e9 7e 8b bd
       0.005945474 -0.03568607 -0.012514569 -0.068113156
000240 50 77 0b bc dc 63 fc bc b3 32 09 bd 5a 3f ac bc
       -0.008512333 -0.030809335 -0.033495616 -0.021026302
000250 3f 6b 36 bd e0 68 3f 3c 0e 8f 4b bd 22 06 66 3d
       -0.04453587 0.011682719 -0.049696974 0.056158192
000260 30 9f 95 3c f8 64 c5 bc 2a ab 1f 3d 85 4c 97 3d
       0.018264383 -0.024095997 0.038981594 0.07387642
000270 c4 df 8b bd b0 4e 13 3d 78 9c ee 3c f6 03 68 3d
       -0.06829789 0.035963714 0.029127344 0.056644402
000280 0d aa 18 bd 6e 83 e3 bc 2c c5 85 bd 6f c1 8c bd
       -0.037271548 -0.027772631 -0.06531748 -0.06872832
000290 f0 b6 30 bc 06 e9 e7 bc ba 67 51 3d f0 e7 a3 bd
       -0.010785803 -0.028309356 0.051124312 -0.08003223
0002a0 f4 04 cd 3c 50 7f 8f bb a6 5e 35 3d 8e 22 d0 bc
       0.025026776 -0.0043791905 0.044279717 -0.025407102
0002b0 d8 38 84 bd 80 28 16 3b 1c 9f 93 bd 90 10 cb bc
       -0.064561546 0.0022912323 -0.07208082 -0.024788171
0002c0 a0 e9 7d 3c c0 a1 92 3a cc 18 cf bc 52 3e 4d 3d
       0.015497595 0.0011187121 -0.025280379 0.05010826
0002d0 5c 7e 87 bd a0 c4 ce bb f5 0b 0e bd 40 1f 00 bb
       -0.06615898 -0.0063100606 -0.034679372 -0.0019549876
0002e0 b0 7c d6 3b 38 e2 a4 bc f3 f0 9c 3d 26 51 75 3d
       0.0065456256 -0.0201274 0.07663145 0.059891842
0002f0 62 4e 0d bd cd d7 a3 3d cd db 96 3d fe 42 4a 3d
       -0.03449858 0.08000145 0.073661424 0.049380295
000300 af 7b 48 bd 12 b0 5d 3d 0f 59 51 bd 00 26 22 39
       -0.04894608 0.05412299 -0.051110324 0.0001546368
000310 79 aa 81 bd c0 6d a6 3a a6 d7 f2 bc 9a 33 27 3d
       -0.06331343 0.0012697503 -0.029643845 0.040820695
000320 2e c9 6f bd bb bb 9e bd b0 ac 94 3b c6 34 0c 3d
       -0.05854147 -0.077506505 0.0045371875 0.034230016
000330 c8 67 89 3c c2 05 73 3d 5f c0 9f 3d 78 27 53 bc
       0.01677312 0.059331663 0.07800364 -0.012887828
000340 ba b4 ce bc 44 4f c7 3c 6c 34 89 3c a4 ab bf bc
       -0.025232662 0.024329789 0.01674863 -0.023397274
000350 94 e0 fa 3c 70 cd d4 3b 90 bb 8c bd 65 f6 89 bd
       0.030624665 0.0064942166 -0.06871712 -0.06736449
000360 f8 3f 83 3c ec e1 83 bc 10 8f dc 3c 56 ff 7c bd
       0.016021714 -0.016098939 0.026923686 -0.061766945
000370 c8 aa 15 3d 28 b6 99 bd d8 82 0f bd 68 ea 1e bc
       0.036539823 -0.07505447 -0.03503689 -0.0096994415
000380 dc b5 98 bc 4d 52 93 3d b0 d3 95 3c 08 c7 9b 3c
       -0.018641405 0.07193432 0.018289417 0.019015804
000390 10 8a a4 bd 32 82 48 3d da 34 19 bd 52 b9 00 3d
       -0.08034146 0.04895229 -0.03740392 0.031426735
0003a0 42 ca f5 bc 08 7b 39 3c bc 91 a4 bc 3e 77 a1 bd
       -0.03000367 0.011320837 -0.020089023 -0.07884072
0003b0 2e ce 2b 3d b2 13 7a 3d 61 88 33 bd 10 88 a2 3c
       0.041944675 0.06105394 -0.043831233 0.01984027
0003c0 18 4f 97 3c 0f 16 8c 3d 4e 60 50 bd 08 50 c0 bc
       0.018470332 0.06840145 -0.050873093 -0.023475662
0003d0 8d 6c 2c bd 62 55 11 3d ac 99 b4 3c 9e be 76 3d
       -0.04209571 0.035481818 0.022045933 0.06024038
0003e0 14 ad a6 bc aa 52 27 3d 04 26 bf 3c a1 c8 8f 3d
       -0.020346202 0.04085032 0.023333557 0.07020689
0003f0 f4 e4 9a bc 7d 06 9b 3d a9 14 9d 3d 0c 17 95 bc
       -0.018908001 0.07569597 0.07669956 -0.018199466

layers.0.bias f4 [128]
000000 0a d7 23 3c 0a d7 23 3c 0a d7 23 3c 0a d7 23 3c
       0.01 0.01 0.01 0.01
000010 0a d7 23 3c 0a d7 23 3c 0a d7 23 3c 0a d7 23 3c
       0.01 0.01 0.01 0.01
000020 0a d7 23 3c 0a d7 23 3c 0a d7 23 3c 0a d7 23 3c
       0.01 0.01 0.01 0.01
000030 0a d7 23 3c 0a d7 23 3c 0a d7 23 3c 0a d7 23 3c
       0.01 0.01 0.01 0.01
000040 0a d7 23 3c 0a d7 23 3c 0a d7 23 3c 0a d7 23 3c
       0.01 0.01 0.01 0.01
000050 0a d7 23 3c 0a d7 23 3c 0a d7 23 3c 0a d7 23 3c
       0.01 0.01 0.01 0.01
000060 0a d7 23 3c 0a d7 23 3c 0a d7 23 3c 0a d7 23 3c
       0.01 0.01 0.01 0.01
000070 0a d7 23 3c 0a d7 23 3c 0a d7 23 3c 0a d7 23 3c
       0.01 0.01 0.01 0.01
000080 0a d7 23 3c 0a d7 23 3c 0a d7 23 3c 0a d7 23 3c
       0.01 0.01 0.01 0.01
000090 0a d7 23 3c 0a d7 23 3c 0a d7 23 3c 0a d7 23 3c
       0.01 0.01 0.01 0.01
0000a0 0a d7 23 3c 0a d7 23 3c 0a d7 23 3c 0a d7 23 3c
       0.01 0.01 0.01 0.01
0000b0 0a d7 23 3c 0a d7 23 3c 0a d7 23 3c 0a d7 23 3c
       0.01 0.01 0.01 0.01
0000c0 0a d7 23 3c 0a d7 23 3c 0a d7 23 3c 0a d7 23 3c
       0.01 0.01 0.01 0.01
0000d0 0a d7 23 3c 0a d7 23 3c 0a d7 23 3c 0a d7 23 3c
       0.01 0.01 0.01 0.01
0000e0 0a d7 23 3c 0a d7 23 3c 0a d7 23 3c 0a d7 23 3c
       0.01 0.01 0.01 0.01
0000f0 0a d7 23 3c 0a d7 23 3c 0a d7 23 3c 0a d7 23 3c
       0.01 0.01 0.01 0.01
000100 0a d7 23 3c 0a d7 23 3c 0a d7 23 3c 0a d7 23 3c
       0.01 0.01 0.01 0.01
000110 0a d7 23 3c 0a d7 23 3c 0a d7 23 3c 0a d7 23 3c
       0.01 0.01 0.01 0.01
000120 0a d7 23 3c 0a d7 23 3c 0a d7 23 3c 0a d7 23 3c
       0.01 0.01 0.01 0.01
000130 0a d7 23 3c 0a d7 23 3c 0a d7 23 3c 0a d7 23 3c
       0.01 0.01 0.01 0.01
000140 0a d7 23 3c 0a d7 23 3c 0a d7 23 3c 0a d7 23 3c
       0.01 0.01 0.01 0.01
000150 0a d7 23 3c 0a d7 23 3c 0a d7 23 3c 0a d7 23 3c
       0.01 0.01 0.01 0.01
000160 0a d7 23 3c 0a d7 23 3c 0a d7 23 3c 0a d7 23 3c
       0.01 0.01 0.01 0.01
000170 0a d7 23 3c 0a d7 23 3c 0a d7 23 3c 0a d7 23 3c
       0.01 0.01 0.01 0.01
000180 0a d7 23 3c 0a d7 23 3c 0a d7 23 3c 0a d7 23 3c
       0.01 0.01 0.01 0.01
000190 0a d7 23 3c 0a d7 23 3c 0a d7 23 3c 0a d7 23 3c
       0.01 0.01 0.01 0.01
0001a0 0a d7 23 3c 0a d7 23 3c 0a d7 23 3c 0a d7 23 3c
       0.01 0.01 0.01 0.01
0001b0 0a d7 23 3c 0a d7 23 3c 0a d7 23 3c 0a d7 23 3c
       0.01 0.01 0.01 0.01
0001c0 0a d7 23 3c 0a d7 23 3c 0a d7 23 3c 0a d7 23 3c
       0.01 0.01 0.01 0.01
0001d0 0a d7 23 3c 0a d7 23 3c 0a d7 23 3c 0a d7 23 3c
       0.01 0.01 0.01 0.01
0001e0 0a d7 23 3c 0a d7 23 3c 0a d7 23 3c 0a d7 23 3c
       0.01 0.01 0.01 0.01
0001f0 0a d7 23 3c 0a d7 23 3c 0a d7 23 3c 0a d7 23 3c
       0.01 0.01 0.01 0.01

layers.1.weight f4 [50, 128]
000000 b7 2c 98 bd 76 e2 19 be 1e ca 07 be 0f 78 1e 3e
       -0.07430404 -0.15027794 -0.13260695 0.15475486
000010 98 2b b3 bd 0e a9 c3 3d 5f 2f 0b be 60 86 2c bc
       -0.08748549 0.09553729 -0.1359229 -0.010530084
000020 0b 40 f6 bd 2a ae c1 bd 14 96 4b bd 65 1a 8b bd
       -0.12023934 -0.09457047 -0.049703673 -0.06792144
000030 9b 4d f6 bd 6e b1 f8 bd 48 04 11 bd c4 78 27 be
       -0.12026521 -0.12143217 -0.035404474 -0.16354662
000040 1e 6c fe bd 4b 49 f7 bd 3d a6 2b 3e 42 d5 a0 3d
       -0.124229655 -0.120745264 0.16762634 0.07853176
000050 74 a1 22 3d 53 be c2 bd 94 1f 0d be 05 6d 12 3e
       0.039704755 -0.09508958 -0.13781577 0.142994
000060 60 88 f0 3b 5e ef d2 3d fe 43 cf 3d 46 fd 2d be
       0.007340476 0.10299562 0.1012039 -0.16991147
000070 ca 60 29 be 1a d2 bc 3d 95 cf 32 3e 90 4a a5 bc
       -0.16540828 0.09219761 0.17461999 -0.020177156
000080 f0 81 ce bc 8c ed b5 bd ea 28 8b 3d 21 5b 1c 3e
       -0.025208443 -0.08883199 0.06794913 0.15269138
000090 d2 ee b9 3d 80 65 e5 bb 52 65 cc 3d 0c 65 7b 3d
       0.090787545 -0.007000625 0.09980263 0.061375663
0000a0 84 b0 0e be 8d 0f 10 3e be c2 f8 3d 00 02 fe b9
       -0.13934523 0.14068432 0.12146519 -0.00048448145
0000b0 00 4e e6 3a 16 0f e6 bd 56 13 8f 3d d8 20 92 3c
       0.0017570853 -0.11233346 0.0698611 0.017837927
0000c0 f1 47 1e 3e 16 e0 1e be e0 93 60 bc 3c 04 69 3d
       0.15457131 -0.1551517 -0.013707131 0.056888804
0000d0 01 94 11 3e 4e 52 b3 3d 72 ae 93 bd e8 60 e3 bd
       0.14216615 0.08755933 -0.07211007 -0.11102468
0000e0 e8 d2 f9 bc d5 5d 95 bd fa 91 e1 bd 6b 93 fd bd
       -0.030496076 -0.07293288 -0.11014171 -0.12381633
0000f0 90 bb 0b bd 1c 15 0a 3d a2 a5 db 3d 80 e8 9c 3b
       -0.03411442 0.033711538 0.10724951 0.0047884583
000100 00 ee 42 bb 88 e7 b6 3c 30 f1 16 3c e0 ec f5 3b
       -0.002974391 0.0223272 0.009212777 0.0075050443
000110 6c ef 12 bd a7 8f 2a 3e bd 38 81 bd fb d4 1f be
       -0.03587286 0.16656362 -0.0630965 -0.1560859
000120 8c e0 15 be 70 d4 03 3c 00 e3 75 3d aa 6d 8b 3d
       -0.14636439 0.0080462545 0.060030937 0.06808026
000130 80 bd 79 bc 96 4a a4 bd 7c 35 20 bd 80 27 3d bc
       -0.015242934 -0.08022039 -0.039113507 -0.011545062
000140 95 b7 f1 bd 56 e4 fc bd f8 a7 ef bc a0 d8 f1 bb
       -0.118025936 -0.12348239 -0.029254898 -0.00738056
000150 7e aa c1 3d 70 70 d5 bc 5e 14 98 bd b0 53 2b 3c
       0.09456347 -0.026054591 -0.0742576 0.010456964
000160 99 52 0d 3e 08 4f 7b bd 74 86 86 3d e1 25 a4 bd
       0.1380104 -0.061354667 0.06568614 -0.08015037
000170 d0 b7 24 be 80 9e 30 bb f6 17 d2 3d ae 01 94 3d
       -0.16085744 -0.0026949942 0.102584764 0.07226883
000180 49 c9 e8 bd d2 9e 2a be 1e 9a 07 be f6 d9 89 3d
       -0.11366517 -0.16662148 -0.13242385 0.06731026
000190 da ac 94 3d 50 5e 7f 3d 02 57 a5 3d c0 da 8e bb
       0.07259531 0.062345803 0.08073236 -0.004359573
0001a0 f0 65 9b bd d2 d1 b7 3d 20 a1 7c 3c 00 0b 5a 3c
       -0.075878024 0.08975567 0.015419275 0.013308287
0001b0 1a 4d 83 3d d4 b4 67 bd 6d 08 8f bd ea d3 f2 3d
       0.0641119 -0.056568936 -0.06984029 0.11856826
0001c0 32 5d 9b bd 9a 75 fb 3d ba 3d b8 3d 16 e0 a9 bd
       -0.07586135 0.1227829 0.089961484 -0.08294694
0001d0 79 b6 99 bd 50 b3 ce bc 62 3e 8e 3d 00 22 ac 3b
       -0.07505507 -0.025231987 0.06945492 0.0052530766
0001e0 96 ac 8e 3d 10 5b fc bd 52 94 8e 3d 30 4a 2c be
       0.06966512 -0.12322056 0.069618836 -0.16825175
0001f0 ab 59 23 3e 94 49 5f bd 78 62 2b be 45 5c 2d be
       0.15952174 -0.05451353 -0.16736782 -0.1692973
000200 e1 4c 2c be db 35 08 3e c1 26 10 be 48 64 9b 3c
       -0.16826202 0.13301794 -0.14077283 0.018968716
000210 b0 60 39 bd 96 13 bd bd ee 72 0f be 2c 41 de bd
       -0.045258224 -0.09232251 -0.14008686 -0.10852274
000220 4d f9 ae bd ba 57 b1 3d 4b 67 1c 3e 17 97 0b 3e
       -0.08543644 0.08659311 0.15273778 0.13631855
000230 30 7b 1a be cc 9f 0f bd ac a5 1d 3d fd 2c 0b 3e
       -0.15086055 -0.035064504 0.038488075 0.1359138
000240 46 5e 91 3d d5 79 0f 3e 40 2e 68 bd 60 34 a6 3c
       0.07098059 0.14011319 -0.056684732 0.020288646
000250 f2 c0 bd 3d e2 1e ce bd 35 25 8c bd 46 dc 1d be
       0.09265317 -0.10064484 -0.06843034 -0.15416059
000260 d0 99 10 bd 31 db 30 be 87 96 08 3e 20 b0 36 be
       -0.035302937 -0.17271115 0.13338672 -0.17840624
000270 ac 93 3d 3d c0 08 f5 3c a5 bf 32 3e f8 17 cd bc
       0.04628341 0.029911399 0.17455919 -0.025035843
000280 8c dc 6e 3d d8 c9 be bc 58 6a ff bd af 74 2f be
       0.0583158 -0.023289606 -0.12471455 -0.17134355
000290 f2 2d fa 3d 6c 1e 5b bd f9 8b 3b 3e 4e 12 fc 3d
       0.122157946 -0.05349581 0.18315114 0.12308179
0002a0 c6 b3 ea 3d 5a 00 c6 3d 3a e5 25 be 41 87 2b be
       0.1146007 0.09668036 -0.16200724 -0.16750814
0002b0 c0 46 41 bb df 3f 96 bd 6e f1 1c be a0 a5 60 bc
       -0.0029491633 -0.07336401 -0.15326473 -0.013711363
0002c0 63 52 8c bd 75 4e 0c 3e a2 e4 f5 bd dd 36 3b be
       -0.068516515 0.13701804 -0.12006499 -0.18282647
0002d0 82 21 ea 3d 1e fb 98 3d d9 2e 29 3e 98 2e 2f be
       0.11432172 0.07469772 0.16521777 -0.17107618
0002e0 90 41 d3 bc b0 f5 03 bd a7 00 e6 bd 6d 2b 14 3e
       -0.025788099 -0.032216728 -0.11230593 0.1446969
0002f0 d5 e9 02 be f7 9d 31 be 82 8d aa 3d 00 b3 92 bc
       -0.12784512 -0.17345415 0.08327772 -0.01790762
000300 73 ba 2b 3e 56 01 04 be 2c 82 42 3d 64 69 10 3d
       0.16770343 -0.12891135 0.047487423 0.03525676
000310 90 74 31 bd 21 b5 f1 bd 8e 20 e1 3d 2a 2c c3 3d
       -0.043324053 -0.11802126 0.109925374 0.09529908
000320 e0 46 18 be 14 c7 53 bd cd 6d 3b be 80 4d d5 3a
       -0.14870787 -0.051703528 -0.18303604 0.0016273707
000330 fe 7f f7 3d d6 24 9e 3d bc dc 18 3d 44 12 4d 3d
       0.120849594 0.0772187 0.037319884 0.050066248
000340 d5 19 27 3e 43 2c 2a 3e 5a 55 b3 3d 30 81 43 3c
       0.16318448 0.16618447 0.08756514 0.011932656
000350 94 a0 1d bd f3 1e 05 3e ee 96 cf 3d aa 9c 96 3d
       -0.038483217 0.13000087 0.101362094 0.073541
000360 5a 6a db 3d bd a5 2d be 56 86 93 3d 80 01 86 bc
       0.10713644 -0.16957755 0.07203357 -0.016358137
000370 90 2f 52 3d 5b bd 22 3e 04 cc dd bd 0b 0e 30 be
       0.05131489 0.15892546 -0.108299285 -0.17192857
000380 c0 41 4d bb 44 f4 12 3d 1c 93 52 3d aa e1 99 bd
       -0.0031319708 0.03587748 0.051409826 -0.07513745
000390 15 92 1e 3e 19 df 9d bd e0 05 61 3d c8 02 ac bd
       0.15485413 -0.07708568 0.054937243 -0.08398968
0003a0 50 5b 5c bd 41 16 9d bd 70 cd 30 3c fd ab 10 3e
       -0.05379802 -0.0767026 0.010791168 0.14128108
0003b0 93 ca 9f bd c9 04 ba bd 63 45 06 3e 8e 92 f4 3d
       -0.0780231 -0.09082944 0.13112406 0.119420156
0003c0 71 b5 ba bd 72 67 e5 3d d0 14 fb bc ff f8 06 3e
       -0.091166385 0.11201371 -0.030649573 0.13180922
0003d0 59 8f 27 3e 02 5d ff bd bc 8a 20 be 0f c8 39 be
       0.16363277 -0.12468912 -0.15677923 -0.18142723
0003e0 e0 ef 11 be 45 97 02 3e 76 2e d9 3d ea 6b 12 be
       -0.14251661 0.12753017 0.10604565 -0.14298978
0003f0 54 11 5f bd 1a b3 e8 bd f8 93 30 bd 30 9a ad 3c
       -0.054459885 -0.11362286 -0.043109864 0.021191686

layers.1.bias f4 [50]
000000 0a d7 23 3c 0a d7 23 3c 0a d7 23 3c 0a d7 23 3c
       0.01 0.01 0.01 0.01
000010 0a d7 23 3c 0a d7 23 3c 0a d7 23 3c 0a d7 23 3c
       0.01 0.01 0.01 0.01
000020 0a d7 23 3c 0a d7 23 3c 0a d7 23 3c 0a d7 23 3c
       0.01 0.01 0.01 0.01
000030 0a d7 23 3c 0a d7 23 3c 0a d7 23 3c 0a d7 23 3c
       0.01 0.01 0.01 0.01
000040 0a d7 23 3c 0a d7 23 3c 0a d7 23 3c 0a d7 23 3c
       0.01 0.01 0.01 0.01
000050 0a d7 23 3c 0a d7 23 3c 0a d7 23 3c 0a d7 23 3c
       0.01 0.01 0.01 0.01
000060 0a d7 23 3c 0a d7 23 3c 0a d7 23 3c 0a d7 23 3c
       0.01 0.01 0.01 0.01
000070 0a d7 23 3c 0a d7 23 3c 0a d7 23 3c 0a d7 23 3c
       0.01 0.01 0.01 0.01
000080 0a d7 23 3c 0a d7 23 3c 0a d7 23 3c 0a d7 23 3c
       0.01 0.01 0.01 0.01
000090 0a d7 23 3c 0a d7 23 3c 0a d7 23 3c 0a d7 23 3c
       0.01 0.01 0.01 0.01
0000a0 0a d7 23 3c 0a d7 23 3c 0a d7 23 3c 0a d7 23 3c
       0.01 0.01 0.01 0.01
0000b0 0a d7 23 3c 0a d7 23 3c 0a d7 23 3c 0a d7 23 3c
       0.01 0.01 0.01 0.01
0000c0 0a d7 23 3c 0a d7 23 3c
       0.01 0.01

layers.2.weight f4 [128, 50]
000000 5c 23 5d bd 36 0c a1 3d 66 47 cd bd a0 97 4d 3d
       -0.0539888 0.07863657 -0.10023384 0.05019343
000010 dd 7a 01 be 6a bd af 3d fc fd 17 be fc 4c 19 bd
       -0.12644525 0.0858105 -0.14842981 -0.037426934
000020 c0 85 d0 3b 94 0a 64 3d 16 68 36 be 18 e4 49 3d
       0.0063636005 0.05567415 -0.17813143 0.049289793
000030 c6 28 e9 3d 90 bc 5f bc 7f 56 2d be 54 88 9f bd
       0.1138473 -0.013655797 -0.16927527 -0.077896744
000040 2a c4 c6 3d 08 6c 58 bd 90 75 71 3d 6e 77 95 3d
       0.09705384 -0.0528374 0.058950007 0.0729817
000050 80 ac 85 bb 9e 7a 30 be 6e ce fc bd 00 ee 63 3a
       -0.0040794015 -0.17234275 -0.12344061 0.00086948276
000060 3a 46 f8 3d ea 23 e3 3d 46 53 e8 3d 3a 76 bc 3d
       0.1212277 0.110908344 0.11344008 0.092022374
000070 87 c6 2d 3e 8e 73 c3 3d 0a eb 8f 3d f6 a6 01 be
       0.16970263 0.09543525 0.07027252 -0.12661347
000080 29 05 31 3e e3 ca 36 3e 91 f0 2b 3e c0 09 35 bb
       0.17287125 0.17850833 0.16790988 -0.002762422
000090 92 13 f4 bd b0 8e 29 bd a0 d1 35 3c dc f9 11 3d
       -0.11917795 -0.041395843 0.011097342 0.035638675
0000a0 38 af d8 bc 1b 3b 20 be 1e af 01 be 84 ec 4e bd
       -0.026450738 -0.15647547 -0.12664458 -0.050518528
0000b0 c7 60 01 3e 24 d2 86 3d d7 ab 11 be ad ae dd bd
       0.12634574 0.0658305 -0.14225708 -0.108243324
0000c0 ee ce 2a be de a2 9a 3d b0 2c 67 3d e0 89 88 bb
       -0.166805 0.07550596 0.0564391 -0.0041668266
0000d0 c9 6b 11 3e 38 11 b1 3c 40 72 ba 3b ce a1 a2 3d
       0.14201273 0.021614656 0.005689889 0.07941018
0000e0 7e 85 08 be c8 14 a5 bc 89 80 07 3e 80 49 16 3b
       -0.13332173 -0.02015151 0.13232626 0.0022931993
0000f0 8e 31 ed bd 37 6c bc bd 7e 30 e2 3d 00 b6 db b9
       -0.115817174 -0.09200328 0.110444054 -0.00041906536
000100 d1 87 a0 bd 08 fc 57 bd c6 aa 87 bd 05 09 95 bd
       -0.07838405 -0.05273059 -0.06624369 -0.07277111
000110 aa 1f b2 3d 90 91 39 bc a4 29 f8 bd 50 7a 0b be
       0.08697446 -0.011326209 -0.12117317 -0.13620877
000120 06 d6 f4 3d 72 fc 15 be 66 9e 8d bd 86 69 8f 3d
       0.11954884 -0.14647081 -0.06914978 0.07002549
000130 80 75 ff bc 0c 13 07 be 60 bf d4 3b 50 57 e9 3c
       -0.031183958 -0.1319086 0.0064925402 0.028484017
000140 44 46 ff bd b0 b8 0a 3d d0 71 72 3d 85 5f e4 bd
       -0.12464574 0.033867538 0.05919057 -0.111510314
000150 58 ea 3a bd 1f 29 37 3e 74 6b 7e 3d 53 4d 18 3e
       -0.045633644 0.1788678 0.062114194 0.14873247
000160 50 f2 cc bd 70 00 77 3c a3 0a 33 3e 8a 20 d8 3d
       -0.10007155 0.015075788 0.17484526 0.10553081
000170 d0 30 04 bc 9b 84 34 3e 93 b0 b3 bd 88 3d f9 3c
       -0.008068278 0.1762871 -0.08773913 0.030424848
000180 87 4d 34 be 17 66 2c 3e aa 2a 9b 3d cb 6f 07 3e
       -0.176077 0.16835819 0.07576497 0.1322624
000190 66 14 ae 3d 7a 19 eb 3d 12 9b 86 bd 40 59 dd bb
       0.084999844 0.11479469 -0.06572546 -0.006755024
0001a0 3c a7 49 3d 26 f2 d2 bd 80 3b 49 bb b0 d3 db bc
       0.049231753 -0.103000924 -0.003070563 -0.026834339
0001b0 4d 82 32 3e d0 b7 d5 3c 03 fc f6 bd c8 d3 f0 3c
       0.17432518 0.026088625 -0.12059786 0.02939786
0001c0 88 7e d6 bc 18 53 5e 3d e2 2b d1 3d 4e d2 38 be
       -0.026183382 0.054278463 0.10213448 -0.18048975
0001d0 39 5f 1b 3e 20 02 9d 3c f0 cb ee bc b9 e0 28 3e
       0.15173043 0.019166052 -0.02914998 0.16491975
0001e0 c8 f9 17 be 05 ed 0f 3e ed b4 a1 bd 4b 7d db bd
       -0.14841378 0.1405526 -0.07895837 -0.10717257
0001f0 a0 30 5b 3d 86 0d 97 3d 6a 3a 82 3d a2 dc ba 3d
       0.05351317 0.07375626 0.06358798 0.091241136
000200 00 4e c9 3a 50 2e 0d 3d f8 c6 21 3d 98 cf 80 3d
       0.0015358329 0.034467995 0.039496392 0.06289595
000210 48 c0 5a bd f3 8e e2 bd 5a b7 7e bd d8 7e d8 bc
       -0.05340603 -0.11062422 -0.062186576 -0.026427671
000220 26 ac 8d 3d 1b d2 1f be d3 fb 9f bd 46 58 90 bd
       0.069176 -0.15607493 -0.078117035 -0.07048087
000230 b6 e5 78 bd b8 95 8f bc 60 05 02 be 2c f1 13 be
       -0.060765944 -0.017527446 -0.12697363 -0.14447469
000240 c0 82 a5 3c 72 84 97 3d 17 a8 17 be 18 2d a1 3c
       0.020203948 0.07398309 -0.14810215 0.019674823
000250 be 29 cb 3d 4c e2 25 be 31 f4 36 3e d0 d1 10 bd
       0.09920071 -0.16199607 0.17866589 -0.035356343
000260 ab c8 f4 bd 60 7b ce bb e0 eb 04 bd 26 25 ff 3d
       -0.11952337 -0.0063013285 -0.03245151 0.124582574
000270 f1 92 27 3e fa a5 f7 3d 46 10 1f be 68 e9 e0 3c
       0.16364647 0.120922044 -0.15533552 0.027455047
000280 41 a8 bd bd 90 42 b2 bd 08 da 12 3d 00 de 3e bd
       -0.092606075 -0.08704102 0.035852462 -0.046598434
000290 b3 76 21 be f8 7a a8 3c a9 79 21 be ba d2 cd 3d
       -0.15767936 0.020566449 -0.15769066 0.100499585
0002a0 10 1b 32 3d ec af 78 3d 92 3a fe bd aa 93 d4 3d
       0.04348284 0.060714647 -0.12413515 0.10379727
0002b0 ac de 63 3d a0 e9 6d 3c b8 7a a7 bc bd cd 97 bd
       0.05563228 0.014521033 -0.020444259 -0.07412288
0002c0 f4 92 1c 3d 36 02 d7 bd 4e 78 a8 bd 63 e7 1f be
       0.038226083 -0.104984686 -0.08226071 -0.15615611
0002d0 83 39 d8 bd e6 3d f6 bd e8 aa 7e bd 27 4e 32 be
       -0.105578445 -0.12023525 -0.062174708 -0.17412625
0002e0 d0 2a 29 3d 55 58 8d bd 04 3a 57 bd b9 72 c0 bd
       0.041300595 -0.069016136 -0.052545562 -0.093968816
0002f0 fc 5b b0 bd d5 85 1d be 02 84 b8 3d 74 5c 1a 3d
       -0.086112946 -0.15383084 0.090095535 0.037685826
000300 98 6d cc bc 23 a4 18 3e d9 39 03 be 6e 09 8d bd
       -0.024954602 0.14906363 -0.12815036 -0.06886564
000310 44 e3 0d bd 18 de 4b 3d 8f 91 33 be 94 97 58 3d
       -0.034640566 0.049772352 -0.17535995 0.05287893
000320 60 f6 ef 3c b0 06 56 3c 7e ad e4 bd 74 93 51 bd
       0.029292285 0.013063118 -0.111659035 -0.051166013
000330 96 bd d5 3d 4b dd 3b 3e fc 5b 9d bd 83 6e 10 3e
       0.10436551 0.18346135 -0.0768356 0.14104657
000340 9b 9b 3b 3e 75 26 0e 3e 6f 29 16 be 20 a5 ec bc
       0.18321078 0.13881858 -0.14664243 -0.028887331
000350 e4 8f 14 3d e0 dd 15 bd 32 10 d3 3d 56 79 8c 3d
       0.036270037 -0.03658855 0.103058234 0.068590805
000360 00 84 ee bc 21 b5 35 3e 3e f7 70 bd 80 6f bd bb
       -0.029115677 0.17744876 -0.05882954 -0.005781114
000370 6f 73 33 be 30 a8 df 3c 8c fc 55 3d af e1 0a 3e
       -0.17524503 0.027301878 0.0522428 0.13562654
000380 f0 ae 1a 3d 29 ad 00 be 91 68 14 be 02 57 f8 3d
       0.03776449 -0.12566055 -0.14493014 0.121259704
000390 77 d7 03 3e ce 64 b8 3d 0f ec 08 3e 53 65 24 3e
       0.12875162 0.09003602 0.13371299 0.16054277
0003a0 25 1c 21 3e 3a 16 08 be 80 b8 b8 3c 4d 70 05 be
       0.15733393 -0.13289729 0.022548914 -0.1303112
0003b0 a0 d7 80 3d 35 93 2c be 58 14 e6 bd 17 a1 27 3e
       0.06291127 -0.1685303 -0.11234349 0.16370045
0003c0 30 4c 41 bc f8 02 2c be 7c 50 b2 bd 8e 88 30 be
       -0.01179795 -0.16798007 -0.087067574 -0.17239591
0003d0 18 ec 22 bd d7 71 9b bd 45 e6 e0 bd 68 c7 82 bc
       -0.039775938 -0.075900726 -0.109814204 -0.015964225
0003e0 ef 01 09 3e 56 f1 fd bd 06 b5 0e be e2 b7 f5 3d
       0.13379644 -0.12399547 -0.13936242 0.119979635
0003f0 7a df 8b bd ee 50 bb 3d c4 89 0d bd e1 a4 31 3e
       -0.06829734 0.091462955 -0.03455521 0.17348053

layers.2.bias f4 [128]
000000 0a d7 23 3c 0a d7 23 3c 0a d7 23 3c 0a d7 23 3c
       0.01 0.01 0.01 0.01
000010 0a d7 23 3c 0a d7 23 3c 0a d7 23 3c 0a d7 23 3c
       0.01 0.01 0.01 0.01
000020 0a d7 23 3c 0a d7 23 3c 0a d7 23 3c 0a d7 23 3c
       0.01 0.01 0.01 0.01
000030 0a d7 23 3c 0a d7 23 3c 0a d7 23 3c 0a d7 23 3c
       0.01 0.01 0.01 0.01
000040 0a d7 23 3c 0a d7 23 3c 0a d7 23 3c 0a d7 23 3c
       0.01 0.01 0.01 0.01
000050 0a d7 23 3c 0a d7 23 3c 0a d7 23 3c 0a d7 23 3c
       0.01 0.01 0.01 0.01
000060 0a d7 23 3c 0a d7 23 3c 0a d7 23 3c 0a d7 23 3c
       0.01 0.01 0.01 0.01
000070 0a d7 23 3c 0a d7 23 3c 0a d7 23 3c 0a d7 23 3c
       0.01 0.01 0.01 0.01
000080 0a d7 23 3c 0a d7 23 3c 0a d7 23 3c 0a d7 23 3c
       0.01 0.01 0.01 0.01
000090 0a d7 23 3c 0a d7 23 3c 0a d7 23 3c 0a d7 23 3c
       0.01 0.01 0.01 0.01
0000a0 0a d7 23 3c 0a d7 23 3c 0a d7 23 3c 0a d7 23 3c
       0.01 0.01 0.01 0.01
0000b0 0a d7 23 3c 0a d7 23 3c 0a d7 23 3c 0a d7 23 3c
       0.01 0.01 0.01 0.01
0000c0 0a d7 23 3c 0a d7 23 3c 0a d7 23 3c 0a d7 23 3c
       0.01 0.01 0.01 0.01
0000d0 0a d7 23 3c 0a d7 23 3c 0a d7 23 3c 0a d7 23 3c
       0.01 0.01 0.01 0.01
0000e0 0a d7 23 3c 0a d7 23 3c 0a d7 23 3c 0a d7 23 3c
       0.01 0.01 0.01 0.01
0000f0 0a d7 23 3c 0a d7 23 3c 0a d7 23 3c 0a d7 23 3c
       0.01 0.01 0.01 0.01
000100 0a d7 23 3c 0a d7 23 3c 0a d7 23 3c 0a d7 23 3c
       0.01 0.01 0.01 0.01
000110 0a d7 23 3c 0a d7 23 3c 0a d7 23 3c 0a d7 23 3c
       0.01 0.01 0.01 0.01
000120 0a d7 23 3c 0a d7 23 3c 0a d7 23 3c 0a d7 23 3c
       0.01 0.01 0.01 0.01
000130 0a d7 23 3c 0a d7 23 3c 0a d7 23 3c 0a d7 23 3c
       0.01 0.01 0.01 0.01
000140 0a d7 23 3c 0a d7 23 3c 0a d7 23 3c 0a d7 23 3c
       0.01 0.01 0.01 0.01
000150 0a d7 23 3c 0a d7 23 3c 0a d7 23 3c 0a d7 23 3c
       0.01 0.01 0.01 0.01
000160 0a d7 23 3c 0a d7 23 3c 0a d7 23 3c 0a d7 23 3c
       0.01 0.01 0.01 0.01
000170 0a d7 23 3c 0a d7 23 3c 0a d7 23 3c 0a d7 23 3c
       0.01 0.01 0.01 0.01
000180 0a d7 23 3c 0a d7 23 3c 0a d7 23 3c 0a d7 23 3c
       0.01 0.01 0.01 0.01
000190 0a d7 23 3c 0a d7 23 3c 0a d7 23 3c 0a d7 23 3c
       0.01 0.01 0.01 0.01
0001a0 0a d7 23 3c 0a d7 23 3c 0a d7 23 3c 0a d7 23 3c
       0.01 0.01 0.01 0.01
0001b0 0a d7 23 3c 0a d7 23 3c 0a d7 23 3c 0a d7 23 3c
       0.01 0.01 0.01 0.01
0001c0 0a d7 23 3c 0a d7 23 3c 0a d7 23 3c 0a d7 23 3c
       0.01 0.01 0.01 0.01
0001d0 0a d7 23 3c 0a d7 23 3c 0a d7 23 3c 0a d7 23 3c
       0.01 0.01 0.01 0.01
0001e0 0a d7 23 3c 0a d7 23 3c 0a d7 23 3c 0a d7 23 3c
       0.01 0.01 0.01 0.01
0001f0 0a d7 23 3c 0a d7 23 3c 0a d7 23 3c 0a d7 23 3c
       0.01 0.01 0.01 0.01

layers.3.weight f4 [10, 128]
000000 82 cd e8 bd eb 90 51 be 6c 12 43 3d 7c 24 31 3d
       -0.113673225 -0.20465438 0.04762499 0.043247685
000010 7f 6e 3b 3e c0 59 1b bd 27 c5 43 3e 90 ba c8 bd
       0.1830387 -0.03792739 0.19118176 -0.09801209
000020 12 34 e8 bd 46 01 d1 3d 74 8e 3a bd f8 bd c4 bc
       -0.113380566 0.10205321 -0.04554601 -0.024016365
000030 91 cd 21 3e 81 98 12 3e 58 80 de 3c 8a b4 8e 3d
       0.15801074 0.14315988 0.027160808 0.06968029
000040 f7 f4 10 3e d9 f2 b1 bd 07 c3 1a 3e b4 8c 1c 3d
       0.14155947 -0.08688898 0.1511346 0.038220122
000050 c9 cf 48 3e fa 5a 2c be 8e bc ac 3d 20 6c 3d bc
       0.19610514 -0.1683158 0.084344015 -0.011561424
000060 29 3a 1a 3e b3 ab 44 3e 9b 3e 4c 3e 00 dd 20 3a
       0.15061249 0.19206123 0.19945757 0.0006136447
000070 c0 b3 68 bb d6 64 a6 3d 14 46 1f bd f0 9c 11 bc
       -0.003550753 0.08124702 -0.03888519 -0.0088875145
000080 a6 c8 b3 3d d8 1e 8a bd 00 90 89 bd b1 1c 3a 3e
       0.08778505 -0.06744164 -0.06716919 0.18175007
000090 a4 79 59 3d d4 bd 1f be a4 16 52 3d 8f 26 4e 3e
       0.05309452 -0.15599757 0.051291123 0.20131896
0000a0 78 3b d7 bc d0 0b 74 bd 98 c3 b4 3c 0c 6f 1c bd
       -0.026273474 -0.059581578 0.022065923 -0.03819184
0000b0 88 c5 1d 3d 9f e0 22 3e c0 a9 fb bb 54 5e 03 be
       0.03851846 0.15905999 -0.007680148 -0.12828952
0000c0 84 03 4a bd a0 11 eb bc f3 3f 09 3e 4e 7d a4 3d
       -0.04931976 -0.028694928 0.13403301 0.080317125
0000d0 74 16 32 3d 12 37 df 3d bc 97 cd bd c4 58 4b 3d
       0.043478444 0.10899176 -0.10038707 0.0496452
0000e0 78 15 67 bd ed 31 50 be 1a 71 d5 3d 80 76 ce bc
       -0.05641696 -0.20331545 0.10421963 -0.02520299
0000f0 b8 a3 8e bc b2 2a 32 be bd a2 4c 3e 52 33 cd 3d
       -0.017412052 -0.173991 0.19983955 0.10019554
000100 e3 18 28 3e c0 5a d9 bc d5 61 18 be 5f ea ee bd
       0.16415744 -0.02653253 -0.1488107 -0.116657965
000110 bf 25 1c 3e 40 dd 27 3d 90 1a 04 3d c6 31 be 3d
       0.15248774 0.040982485 0.032251894 0.09286837
000120 2a e0 c6 3d e4 3c e8 bd 7c 68 32 3d cd 24 4f 3e
       0.09710725 -0.11339739 0.043556675 0.20228882
000130 dd 04 f6 bd d9 0a 23 3e d0 73 c4 bc b8 ef 3a bd
       -0.12012646 0.15922107 -0.023981005 -0.04563877
000140 00 73 29 bc 70 21 71 bc 4a 10 52 be 8c 10 5b bd
       -0.01034236 -0.014717445 -0.20514026 -0.053482577
000150 98 2a 06 be 06 59 a8 bd af 33 40 3e 24 8a e6 bd
       -0.13102186 -0.08220105 0.18769716 -0.11256817
000160 09 af 51 be e5 99 49 3e 2b 7f 27 3e 38 88 a3 3c
       -0.20476927 0.19687612 0.16357104 0.019962415
000170 d8 39 da bd 34 86 72 3d a0 88 01 be 7d da 21 3e
       -0.10655564 0.059210017 -0.12649775 0.15806003
000180 60 46 7b bc 72 af 89 bd c5 a4 38 be fb 33 44 be
       -0.015336603 -0.06722917 -0.18031605 -0.19160454
000190 3b 54 c3 bd 43 61 15 3e fd d5 34 3e d6 cd df 3d
       -0.0953755 0.14587884 0.17659755 0.10927932
0001a0 54 18 66 bd d1 c3 11 3e 98 42 05 be db 0f d7 bd
       -0.056175545 0.14234854 -0.13013685 -0.10501071
0001b0 a8 8c 87 3c d2 30 2d be 15 75 d4 bd 78 b2 e7 3c
       0.016546562 -0.16913155 -0.10373894 0.028283343
0001c0 2f 28 d9 bd e6 a2 99 3d 88 e7 c3 3c 98 81 0f be
       -0.106033675 0.075017735 0.023914114 -0.1401428
0001d0 e1 e4 36 3e 7a 01 f4 3d f3 a7 2d be a0 c0 3b bc
       0.17860748 0.11914344 -0.16958599 -0.0114595
0001e0 70 08 36 3c 43 48 03 be 80 2f df 3b 4d 41 50 3e
       0.01111041 -0.12820534 0.0068110824 0.2033741
0001f0 70 05 72 3c 60 01 ea bb 01 1e 43 3e d0 4c ac bc
       0.014771804 -0.007141277 0.19054414 -0.02103272
000200 6a 35 c0 bd cf 66 23 3e d0 23 a1 3c 96 ee e3 3d
       -0.09385188 0.15957187 0.019670397 0.11129491
000210 ca d1 b9 3d d8 4e fc bd 7d bb 1a 3e 18 8e 0a bd
       0.09073217 -0.12319726 0.15110584 -0.033826917
000220 f0 dd 3f 3c ca 01 0e be 07 c8 2a 3e fa 93 d0 bd
       0.011710629 -0.1386787 0.16677867 -0.10184474
000230 87 55 0b 3e d2 19 e0 3d 47 ce 0f 3e 40 45 54 3c
       0.13606845 0.10942425 0.14043532 0.012955964
000240 33 5a 18 3e 5e 74 b6 3d 9f 6e 2e 3e d0 08 88 bd
       0.14878158 0.08908914 0.17034386 -0.06642306
000250 3e ac ca 3d b8 02 02 be a8 50 ac bd 54 55 68 bd
       0.09896134 -0.1269635 -0.084138215 -0.056722
000260 32 92 1f be 50 87 bc bc ef 86 3f 3e 41 9b 41 3e
       -0.15583113 -0.02301374 0.18703817 0.18906881
000270 23 aa 30 be 20 61 b5 bc ae 77 35 be 54 20 7a 3d
       -0.17252402 -0.02214104 -0.17721435 0.061065987
000280 62 42 cf 3d 76 a7 f4 bd ed b6 50 3e 7b f7 cd bd
       0.101200834 -0.11946003 0.2038228 -0.10056969
000290 d0 dc 84 3c 00 4e 73 ba 9d 93 34 3e 4e 63 fa 3d
       0.016218573 -0.0009281337 0.17634435 0.12225972
0002a0 b0 00 78 bc c3 aa 43 3e 28 e1 07 bd 14 7d 6c 3d
       -0.015136883 0.19108109 -0.03317371 0.05773647
0002b0 20 1a 2b 3c 00 a0 29 b9 77 f8 47 3e 00 18 ca 38
       0.01044324 -0.000161767 0.19528376 9.636581e-05
0002c0 12 5c b3 bd 06 f8 4a be ce 87 d2 3d 50 64 43 be
       -0.087577954 -0.19821176 0.10279809 -0.19081235
0002d0 67 ce 3e 3e 3b 26 39 3e f2 50 a6 3d 20 5c 95 3b
       0.18633424 0.1808099 0.08120908 0.0045581013
0002e0 2d 79 f9 bd b2 8a d1 3d fa dc 3f be ac b5 0c be
       -0.121813156 0.10231532 -0.1873664 -0.13741177
0002f0 59 c8 49 3e 8c 42 d9 bd 35 f2 24 be 11 8c 4b 3e
       0.19705333 -0.10608396 -0.1610802 0.1987765
000300 21 e5 33 3e 8b b8 4f be 5e c5 e7 3d 81 be ea bd
       0.17567874 -0.20285241 0.11316942 -0.11462117
000310 8f 53 0a be 38 6d cc 3c 52 a7 fc 3d 42 1d 91 3d
       -0.13508438 0.024954423 0.12336601 0.070856586
000320 96 a3 40 be 90 eb 42 bc a8 2f 39 bd 7f 82 51 3e
       -0.18812403 -0.011896983 -0.045211464 0.20459937
000330 b1 fe 46 3e 3a 5c 16 be 6a f3 99 bd 14 01 3a bd
       0.19433095 -0.14683619 -0.07517131 -0.045411184
000340 d4 f7 2f be 20 d5 e0 3b 62 5b 4b be 5a f0 d0 bd
       -0.17184383 0.006861344 -0.19859079 -0.102020934
000350 c4 ed 0e be 1e 28 81 3d 65 64 05 3e 08 5b c0 bc
       -0.13957888 0.0630648 0.13026579 -0.023480907
000360 f9 6c 4e 3e fb 8e 02 3e 2b 75 de bd f8 03 00 bd
       0.20158757 0.12749855 -0.10862192 -0.031253785
000370 5c 85 2b be 0a 12 0e be 28 8a 17 be 0b 03 09 3e
       -0.16750091 -0.13874069 -0.14798796 0.13380067
000380 86 eb a1 3d c5 d6 23 be 10 d0 42 bd d0 23 0b 3d
       0.07906251 -0.15999897 -0.047561705 0.0339697
000390 c6 93 44 be 0f 46 23 3e ed 72 c0 bd b1 9e 18 3e
       -0.19196996 0.15944694 -0.0939692 0.14904286
0003a0 0c 96 90 bd 63 58 34 be d8 e9 45 bd 6c de 09 bd
       -0.07059869 -0.17611842 -0.048318714 -0.033659384
0003b0 8d f0 51 be 44 26 4f bd 4f b5 3f 3e 30 6b b4 3c
       -0.20501919 -0.050573602 0.18721507 0.022023767
0003c0 54 a8 a5 bd 56 31 43 be a7 66 28 be e8 ac a3 bd
       -0.08088747 -0.19061789 -0.16445409 -0.079919636
0003d0 c0 9b 5f bd ec 34 65 3d da 96 83 3d fe 06 b8 3d
       -0.054591894 0.055958673 0.06425257 0.08985709
0003e0 f3 9b 22 3e 58 d7 30 be d0 34 2a 3c d3 61 17 be
       0.15879802 -0.17269647 0.010388568 -0.1478341
0003f0 2c 02 29 bd e0 3c 88 bd 26 69 f0 3d 71 2a 18 be
       -0.041261837 -0.06652236 0.117388055 -0.1485994

layers.3.bias f4 [10]
000000 0a d7 23 3c 0a d7 23 3c 0a d7 23 3c 0a d7 23 3c
       0.01 0.01 0.01 0.01
000010 0a d7 23 3c 0a d7 23 3c 0a d7 23 3c 0a d7 23 3c
       0.01 0.01 0.01 0.01
000020 0a d7 23 3c 0a d7 23 3c
       0.01 0.01
