static/model/digit_model.pth (torch, 409136 bytes, 4 tensors)

fc1.weight f4 [128, 784]
0	0xbbc8584d	-0.006114042
1	0x3cfff10f	0.031242875
2	0x3bace702	0.0052765617
3	0x3c24da7a	0.0100618545
4	0x3af117b0	0.00183939
5	0x3ba60b16	0.0050672395
6	0x3d0e3881	0.034721855
7	0x3d1f8439	0.038944457
8	0x3c9b966d	0.018992627
9	0x3babb693	0.0052402704
10	0xbc4a9944	-0.012365643
11	0x3c822855	0.015888372
12	0x3cad2fa4	0.02114088
13	0x3c25ba4e	0.010115219
14	0xbacafa69	-0.0015486005
15	0x3c8edc9b	0.017439177
16	0xbc8e1c45	-0.017347464
17	0xbc90c3e4	-0.017671533
18	0x3cfd9c88	0.030958429
19	0x3c850bec	0.016241036
20	0xbc444fee	-0.011981947
21	0x3d4de23f	0.050264593
22	0x3cb7c872	0.022434447
23	0x3d228d61	0.03968561
24	0x3c962ed3	0.018332874
25	0xbc8ce580	-0.017199278
26	0x3c9d77cd	0.019222165
27	0xbc328d4e	-0.0108979475
28	0xbc514160	-0.012771934
29	0xbca97c7e	-0.020689245
30	0x3d16cafc	0.036814675
31	0x3c52a8ea	0.012857655
32	0xbc29b626	-0.010358369
33	0x3cb011cb	0.02149286
34	0x3c1f46dd	0.009721485
35	0x3bd44519	0.0064779636
36	0x3c1fbfc1	0.009750308
37	0xbc670c15	-0.014102002
38	0x3d3bf268	0.045885473
39	0xbafcfbfc	-0.0019301171
40	0x3ca4f5d3	0.02013675
41	0x3d3999f3	0.045312833
42	0x3c5d172b	0.013494293
43	0x3c89c065	0.016815374
44	0xbcbc29ea	-0.022969205
45	0x3ce62591	0.028094085
46	0x3ca03869	0.019558148
47	0x3cdfd39d	0.027322585
48	0x3d5506c9	0.052008424
49	0x3b966202	0.00458932
50	0x3cff49de	0.031163152
51	0xbc1a38a6	-0.00941292
52	0xbc1a9221	-0.009434254
53	0x3d4bc73f	0.049750563
54	0x3d287fa7	0.041137364
55	0xbc33635e	-0.010948984
56	0x3c562de6	0.0130724665
57	0x3cbd4a22	0.023106638
58	0x3d4d6fff	0.050155636
59	0x3d42e407	0.047580745
60	0x3c243d5d	0.010024396
61	0x3cccd02b	0.025001606
62	0x3cb22348	0.021745339
63	0x3b8b4921	0.004250661
64	0xbccb46d3	-0.024814045
65	0x3bf6713a	0.007520822
66	0x3ba6b45b	0.005087418
67	0x3bb6455f	0.005562469
68	0xbc4dbef4	-0.012557734
69	0x3ca671ea	0.02031799
70	0x3ccf451b	0.025301507
71	0xbcd7a35d	-0.026323015
72	0xbc5aeae7	-0.013361669
73	0xbab32884	-0.0013668691
74	0xbc330c15	-0.010928174
75	0xbc8cfefb	-0.017211428
76	0x3c815818	0.015789077
77	0x3d1e0f47	0.03858879
78	0x3ba93099	0.005163264
79	0x3d36bf08	0.044615775
80	0x3d35ebd0	0.04441434
81	0xbb007a48	-0.0019604135
82	0x3d2eb937	0.042657103
83	0xbbd3bdf2	-0.006461852
84	0x3c7894be	0.015172182
85	0xbc796a6c	-0.015223127
86	0x3cc0544f	0.023477701
87	0xb9cd16d3	-0.00039117652
88	0x3cf5e1b5	0.030014852
89	0xbc211714	-0.009832162
90	0xbc740739	-0.0148943
91	0x3d28d43a	0.04121802
92	0x3d482e5d	0.04887234
93	0xbc19c7d6	-0.0093860235
94	0x3d0b51d8	0.0340136
95	0x3d010119	0.031495187
96	0x3c8948f9	0.016758429
97	0x3bb453f6	0.005503173
98	0x3d8c7791	0.06858743
99	0x3d6d1b4e	0.057887368
100	0x3c134c9a	0.008990431
101	0x3cba6873	0.022754883
102	0xbc26859c	-0.010163691
103	0x3d5484df	0.05188453
104	0x3db5d372	0.088782206
105	0x3b66a9d1	0.0035196433
106	0x3d27ea92	0.040995188
107	0x3d3c8d72	0.04603333
108	0xb9d044d2	-0.00039724127
109	0xbca69178	-0.020333037
110	0x3d3925c2	0.045202024
111	0xbca6acb8	-0.02034603
112	0x3d0e45e9	0.03473464
113	0x3c41f389	0.011837848
114	0x3cc42db8	0.023947582
115	0xbca0c69e	-0.019625958
116	0x3d5894e1	0.052876357
117	0x3d10519f	0.03523409
118	0xbd32a15d	-0.04361092
119	0x3d2e5e47	0.04257038
120	0xbc875630	-0.01652059
121	0xbd2ec0d6	-0.04266437
122	0xbd48164f	-0.0488494
123	0x3d0087f2	0.031379648
124	0x3d0b0556	0.033940636
125	0x3dc78efa	0.097440675
126	0x3d226b67	0.039653208
127	0x3d36d4a4	0.044636384
128	0x3d3f5a46	0.04671695
129	0xbdcd1c70	-0.1001519
130	0xbdd74c6a	-0.10512622
131	0x3d1fa9d0	0.038980305
132	0x3d2a8ccd	0.041638184
133	0x3d4eb512	0.05046565
134	0x3d969c09	0.0735398
135	0x3d078db3	0.03309412
136	0x3d74115e	0.059586875
137	0xbb995026	-0.004678744
138	0x3cc373bf	0.023858903
139	0xbc28d4f6	-0.01030468
140	0x3cacb214	0.021081008
141	0x3c7cbcbd	0.015425858
142	0x3a4a65e9	0.0007720874
143	0x3d453e89	0.04815534
144	0x3d1c7f1d	0.038207162
145	0x3db7eb6c	0.0898045
146	0x3d8fcefb	0.070219
147	0x3dbff017	0.093719654
148	0x3db42892	0.08796801
149	0x3d821b45	0.063528575
150	0xbbf37dda	-0.007430774
151	0x3d0ba4f0	0.034092844
152	0x3c4962c2	0.012291612
153	0x3d4e5fbe	0.050384276
154	0x3d110db7	0.03541347
155	0x3d05b42a	0.03264252
156	0xbcb38dc6	-0.021918189
157	0xbd885af9	-0.06657977
158	0xb7ceaba4	-2.463704e-05
159	0xbc9cf572	-0.019160006
160	0x3cc0feb8	0.02355896
161	0xbd67bff6	-0.056579553
162	0xbcc0b453	-0.023523485
163	0x3d8b43ba	0.06800027
164	0x3ceb0432	0.028688524
165	0x3a6d9ab6	0.0009063886
166	0xbc470822	-0.012147935
167	0xbc2ffe25	-0.010741745
168	0x3cc1a314	0.023637332
169	0x3d1153e5	0.0354804
170	0x3c687163	0.01418719
171	0x3cb6c130	0.022308916
172	0x3c84a832	0.016193483
173	0x3da0fbde	0.0786054
174	0x3c83d3f1	0.016092272
175	0x3c9c99c3	0.019116288
176	0x3d30435c	0.04303299
177	0x3ca3b158	0.019982025
178	0x3c6a05d5	0.014283617
179	0x3d2c84b2	0.042118736
180	0xbcf9d9a0	-0.03049928
181	0x3cd12be6	0.025533628
182	0xbd659e09	-0.056058917
183	0xbd065c1d	-0.03280269
184	0xbd3da53f	-0.04630017
185	0xbcab7e84	-0.02093435
186	0xbd56e328	-0.052462727
187	0x3d37286e	0.04471629
188	0x3d8f0cbd	0.069848515
189	0x3dd30356	0.10303371
190	0x3d00d83c	0.031456217
191	0x3dfb6172	0.122744456
192	0x3db69e65	0.0891693
193	0x3cadd20c	0.021218322
194	0x3ce9c5a2	0.028536621
195	0x3d379385	0.04481842
196	0xbc6aedba	-0.014338905
197	0x3c999274	0.018746592
198	0x3cfe3f5a	0.031036068
199	0x3cd84e18	0.026404426
200	0x3c1a8551	0.009431199
201	0x3c8715f7	0.016489966
202	0xbd065927	-0.032799866
203	0x3d952753	0.07282891
204	0x3bc7705f	0.0060863937
205	0xbc626868	-0.013818838
206	0xbc0672d8	-0.008206092
207	0xbd665fbf	-0.056243654
208	0xbd5c8725	-0.05383982
209	0xbd47c8ab	-0.048775356
210	0xbdb852d5	-0.09000174
211	0xbdb50978	-0.08839697
212	0xbd9242c9	-0.071416445
213	0xbda16f77	-0.07882588
214	0xbcea18ce	-0.02857628
215	0x3d67dc2f	0.056606468
216	0x3d295a74	0.04134603
217	0x39a25965	0.00030965652
218	0x3d7e74c4	0.062123075
219	0x3e2a023d	0.16602416
220	0x3dfdb233	0.123875044
221	0x3c16e0d7	0.009208879
222	0x3c250eaa	0.010074297
223	0xbc54d010	-0.012989059
224	0xbbef267f	-0.0072982903
225	0xbc7953d9	-0.015217745
226	0x3d5c8a97	0.053843107
227	0x3d7c02a7	0.061525967
228	0xbba39d9e	-0.0049931547
229	0x3c63f55a	0.013913477
230	0x3b8a8bec	0.004228106
231	0x3d13c3f1	0.036075536
232	0xbc5520cb	-0.013008307
233	0xbcefce38	-0.029273137
234	0xbd99256a	-0.07477839
235	0xbcc4b91a	-0.024014045
236	0xbd214303	-0.039370548
237	0xbd9d1ebe	-0.07671879
238	0xbc817709	-0.01580383
239	0xbc80e080	-0.01573205
240	0xbca121b7	-0.019669397
241	0x3b80d4f7	0.0039316374
242	0x3d5f6453	0.054539036
243	0x3d09208f	0.033478316
244	0x3d2dab08	0.042399436
245	0x3daf122b	0.08548387
246	0x3d9fa353	0.077948235
247	0xba5a6a71	-0.0008331901
248	0x3d3f17c2	0.046653517
249	0xbc999791	-0.01874903
250	0x3b66582f	0.0035147776
251	0xbb5da1f2	-0.003381845
252	0x3b4f8c38	0.003166927
253	0x3c9fc451	0.01950279
254	0xbaed92af	-0.001812538
255	0x3be657bf	0.007029503

fc1.bias f4 [128]
0	0x3c181049	0.009281226
1	0x3c880d7f	0.016607998
2	0xbcb515f9	-0.022105204
3	0x3d0e3c93	0.034725737
4	0xb88a40c0	-6.5924134e-05
5	0x39e98666	0.00044541358
6	0x3bc2b7c6	0.0059423177
7	0xbcda08b1	-0.026615473
8	0xbd4e103a	-0.050308444
9	0x3d3b9f62	0.045806296
10	0xbb23deb1	-0.002500456
11	0x3b4a781d	0.0030894347
12	0xbb1391f5	-0.0022517417
13	0xbcfe1b74	-0.03101895
14	0xbc33a071	-0.010963545
15	0x3b244912	0.0025067967
16	0xbca2f2c3	-0.019891148
17	0xbd15737d	-0.03648709
18	0xbcdf528b	-0.02726104
19	0xbd0685e5	-0.032842536
20	0x3c5ea339	0.01358872
21	0xbc686398	-0.014183901
22	0x3b643260	0.0034820065
23	0xbc8cf51c	-0.017206721
24	0x3cbd152e	0.023081388
25	0xbd226075	-0.03964277
26	0xbc8fbdd3	-0.01754657
27	0x3bd33b40	0.006446272
28	0x3b636a5f	0.0034700853
29	0xbd12e5fc	-0.03586386
30	0x3adebf73	0.0016994312
31	0x3c37a880	0.011209607
32	0x3c68b2ce	0.014202787
33	0x3c72edff	0.0148272505
34	0xbd73665e	-0.059423797
35	0xbcbc2f6b	-0.02297183
36	0xbc414cb5	-0.011798074
37	0x3b89bced	0.00420343
38	0xb9d6aa3c	-0.00040944095
39	0xbc00111a	-0.007816577
40	0xbc448145	-0.011993711
41	0xbba34eb2	-0.0049837464
42	0xbbcaa423	-0.0061841174
43	0xbc9507e4	-0.01819224
44	0xbd171692	-0.03688676
45	0x3c9a57d4	0.018840708
46	0x3c83e66c	0.016101085
47	0x3cbb84db	0.022890499
48	0xbcaa14f7	-0.02076195
49	0xbc7228f8	-0.0147802755
50	0xbd1748d7	-0.0369347
51	0xbb43d7eb	-0.0029883336
52	0xbce87236	-0.028374773
53	0x3d3fd5c2	0.046834715
54	0xbc980044	-0.018554814
55	0xbc8fd64c	-0.01755824
56	0x3c09c566	0.00840888
57	0x3bb09f09	0.005390052
58	0xbc707337	-0.014675907
59	0xbd3258bc	-0.043541655
60	0xbd05c5a9	-0.032659207
61	0x3d0e44d0	0.034733593
62	0xbd10de9e	-0.035368554
63	0x3cf0b0e3	0.029381221
64	0xbd467f0a	-0.048460998
65	0xbb690c63	-0.0035560362
66	0x3cd9d9ba	0.026593078
67	0xbd54449c	-0.051823243
68	0xbb921f61	-0.004459307
69	0xbc6b1c21	-0.014349968
70	0x3c1f6184	0.009727839
71	0xbcbe2aaf	-0.023213712
72	0x3c9958c3	0.018719083
73	0x3bc779ca	0.0060875164
74	0xbbc218ed	-0.0059233815
75	0x3cf4de53	0.029891169
76	0xbd28703d	-0.041122664
77	0xbce8b2b7	-0.02840553
78	0x3b02eb61	0.0019976723
79	0x3b14185a	0.0022597522
80	0x3cd0a1fd	0.025467867
81	0xbbe3a12a	-0.0069467025
82	0xbcd6dce5	-0.026228378
83	0x3c819c2b	0.015821537
84	0x3984b070	0.00025308458
85	0xbce475fe	-0.027888294
86	0xbd2e6fa8	-0.042586952
87	0x3cda472b	0.026645264
88	0x3cb0c0ff	0.021576403
89	0x3c8d726a	0.017266471
90	0xbd2089ae	-0.0391938
91	0x3d22e002	0.03976441
92	0xbc91e872	-0.017811034
93	0x3d28874d	0.041144658
94	0x3d08594e	0.033288293
95	0xbc264048	-0.010147162
96	0xbd00448d	-0.031315375
97	0xbb1e67b2	-0.0024170694
98	0xbb97cbc6	-0.004632446
99	0xbcc3dc93	-0.023908889
100	0x3cd66a5a	0.02617376
101	0x3d16836d	0.03674643
102	0xbca6942c	-0.020334326
103	0x3d1ff9b6	0.039056502
104	0x3bec0a36	0.0072033657
105	0xbcf8bc5f	-0.03036326
106	0xbc2c52cc	-0.010517787
107	0xbd04fe80	-0.032469273
108	0xbd0f90dc	-0.035050258
109	0xbbda2850	-0.0066576377
110	0x3cd0ddd4	0.0254964
111	0x3cdaf517	0.026728196
112	0xbd488699	-0.048956487
113	0xbcda08df	-0.026615558
114	0xbbbdf5af	-0.00579711
115	0x3c4a1113	0.012333172
116	0x3bc53392	0.0060181106
117	0xbc68438b	-0.01417626
118	0xbcd5c357	-0.026094122
119	0xbcd01517	-0.025400681
120	0x3d120d4f	0.035657223
121	0x3aacb35b	0.0013176011
122	0x3bdf839d	0.0068211094
123	0x3cc81b4d	0.02442708
124	0xbd3f95d7	-0.046773758
125	0xbc48e526	-0.0122616645
126	0x3ccc965a	0.024974037
127	0x3c182872	0.009286987

fc2.weight f4 [10, 128]
0	0x3d6effa8	0.05834928
1	0xbe37de0c	-0.17955798
2	0xbd95bc63	-0.073113225
3	0xbd6e7fda	-0.058227398
4	0x3dea81c7	0.11450534
5	0x3ccdf916	0.025143187
6	0xbe407395	-0.18794091
7	0xbe0e126c	-0.13874215
8	0x3ded9ae2	0.11601807
9	0x3d00f7a8	0.031486183
10	0xbd9909ec	-0.074725956
11	0x3d9801ee	0.07422243
12	0xbe26fb98	-0.16306913
13	0x3d963e19	0.07336063
14	0xbe370be7	-0.17875634
15	0xbeaa861e	-0.33305448
16	0x3d982dbe	0.074306
17	0x3dbda9ac	0.09260878
18	0x3da10613	0.07862487
19	0x3d56e309	0.05246261
20	0xbe34e90c	-0.17667025
21	0xbe671811	-0.22567774
22	0x3d9decb8	0.07711166
23	0xbd1c35be	-0.03813719
24	0xbe381f76	-0.17980751
25	0xbd53dec0	-0.051726103
26	0xbd75373f	-0.05986714
27	0x3d8090c4	0.06277612
28	0xbe3f582d	-0.1868598
29	0xbd09c33d	-0.03363346
30	0x3dbf0836	0.09327738
31	0x3e02ff8e	0.12792799
32	0xbe06a3cb	-0.1314842
33	0x3e0b2782	0.1358929
34	0x3df9235a	0.12164946
35	0x3d63d0ed	0.05561917
36	0xbd8061df	-0.062686674
37	0x3df5809c	0.11987421
38	0xbee50c0e	-0.4473576
39	0xbd0fad7a	-0.03507755
40	0xbe3cfd06	-0.18455896
41	0xbe6e0aaa	-0.23246256
42	0xbe5faf53	-0.21844225
43	0x3d54e5bb	0.0519769
44	0x3d85dfbd	0.06536815
45	0x3dbedcf6	0.09319489
46	0x3e30093a	0.1719102
47	0xbe12d8b5	-0.1434048
48	0xbe974b5e	-0.29549688
49	0xbddc465c	-0.107556075
50	0x3dad5e92	0.084653035
51	0x3d8ed130	0.06973493
52	0xbe375521	-0.17903568
53	0xbd33ea5f	-0.043924686
54	0x3db0ff00	0.086423874
55	0xbc2a6416	-0.010399839
56	0x3da7d2a0	0.081944704
57	0x3cf05d5b	0.02934139
58	0xbd123a3e	-0.035700075
59	0x3c05c011	0.008163468
60	0xbd8410b1	-0.06448496
61	0x3e2d68b1	0.16934468
62	0xba3a0179	-0.00070955564
63	0x3dfda7b9	0.12385506
64	0x3df388df	0.118913405
65	0xbeafcaa6	-0.34334296
66	0xbde6c53b	-0.112680875
67	0x3de08111	0.109621175
68	0xbd9b277a	-0.07575889
69	0xbc9752a9	-0.018472033
70	0x3d0943b7	0.033511844
71	0xbe956c1a	-0.29184037
72	0xbd63580c	-0.05550389
73	0x3d686875	0.056740243
74	0xbd982aaf	-0.07430016
75	0xbe1dd43d	-0.15412994
76	0x3b998414	0.0046849344
77	0x3e501e3d	0.20324035
78	0x3d94a382	0.07257749
79	0x3d767efb	0.06017969
80	0x3d2b1ddd	0.041776527
81	0xbdf1376e	-0.117781505
82	0xbe3dd33e	-0.18537614
83	0x3e394507	0.18092738
84	0x3d204fc0	0.039138556
85	0x3df2ea52	0.11861099
86	0xbe0097ea	-0.1255795
87	0xbd8ac4c1	-0.06775809
88	0x3e19f102	0.15033343
89	0x3d96d8d4	0.073655754
90	0xbcb19504	-0.021677501
91	0xbe0805d2	-0.1328347
92	0x3e0c3cf8	0.13695133
93	0xbe8c29df	-0.27375695
94	0x3d4afdbe	0.049558394
95	0xbe757e58	-0.23973978
96	0xbe31709a	-0.1732811
97	0x3d414ba0	0.047191262
98	0x3c08c69d	0.008348134
99	0xbe5a273b	-0.21304028
100	0xbe4f6de6	-0.20256767
101	0x3c8028c5	0.01564444
102	0x3d9f7409	0.07785804
103	0x3d8a7154	0.06759897
104	0x3dfb9ef2	0.12286176
105	0x3dd5d167	0.10440331
106	0x3d4d5886	0.05013325
107	0xbe929349	-0.28627995
108	0xbdae9263	-0.08524015
109	0xbe18b7b2	-0.14913824
110	0xbd67da22	-0.056604512
111	0x3da1d0e7	0.07901173
112	0xbb4edb24	-0.0031563723
113	0xbda46cb1	-0.08028544
114	0x3dadee3d	0.08492706
115	0xbdd5191c	-0.1040518
116	0xbe5ad0ba	-0.21368685
117	0x3d9af31a	0.07565899
118	0x3d89c451	0.067268975
119	0x3de0790e	0.10960589
120	0xbe30cb4f	-0.17265056
121	0x3e281efb	0.16418068
122	0xbdf5bd88	-0.11999041
123	0xbdc6d602	-0.097087875
124	0xbe8fea42	-0.28108412
125	0xbe0b41cb	-0.13599317
126	0xbd5019f9	-0.05080602
127	0xbdad13b3	-0.08451023
128	0x3b20a54a	0.0024512582
129	0x3d45d8b8	0.048302382
130	0x3da23a7f	0.079213135
131	0xbd3ca2fd	-0.046053875
132	0xbe8fedb4	-0.2811104
133	0xbdcf4e35	-0.10122339
134	0xbd953df9	-0.07287211
135	0x3ddf5a04	0.10905841
136	0xbd67e9b1	-0.05661935
137	0x3d5c5c47	0.05379894
138	0x3d2d4f87	0.04231217
139	0x3d75e5bf	0.060033556
140	0x3e746058	0.23864877
141	0x3cff4680	0.031161547
142	0x3d4e98e9	0.050438795
143	0x3e15301d	0.14569135
144	0xbe122d4a	-0.14275089
145	0x3e02a2b2	0.12757376
146	0xbdfb6ee9	-0.12277014
147	0x3d9e69d1	0.07735027
148	0x3e7c83c1	0.24659635
149	0x3e493a9a	0.19651261
150	0x3e6c5ccb	0.23082273
151	0x3d81e252	0.06341995
152	0xbd8a3a51	-0.06749404
153	0x3ddddef0	0.108335376
154	0xbe1a5fb2	-0.15075567
155	0x3e0a8653	0.13527803
156	0x3d6374c7	0.05553129
157	0x3d6c5314	0.057696417
158	0x3c584c7e	0.013201831
159	0x3c4e0238	0.012573771
160	0x3dbe59f0	0.09294498
161	0x3db65c99	0.0890438
162	0x3dbe3d5e	0.092890486
163	0x3d6626ef	0.056189474
164	0x3dfbc9bf	0.122943394
165	0xbdac8a83	-0.084248565
166	0x3d527978	0.051385373
167	0x3c0f8bc1	0.008761347
168	0xbe548b8a	-0.20756355
169	0x3d0e8a25	0.034799714
170	0xbdd9d614	-0.10636535
171	0xbeaee6a1	-0.3416033
172	0x3d15913f	0.03651547
173	0xbe64b1aa	-0.22333398
174	0xbe4583e6	-0.19288597
175	0xbd0314c6	-0.032002233
176	0xbd870758	-0.065931976
177	0x3c4aa991	0.012369529
178	0xbe931691	-0.28728154
179	0x3e1bfe11	0.15233637
180	0x3da819b0	0.082080245
181	0xbdfff904	-0.12498668
182	0xbce5bbc7	-0.02804364
183	0xbccd7b04	-0.025083072
184	0xbd8206e7	-0.06348973
185	0xbdedc0f5	-0.11609069
186	0x3dc207d0	0.09474146
187	0x3d7d4b8c	0.061839625
188	0x3d65b316	0.056078993
189	0xbd88470a	-0.066541746
190	0x3b9c39b8	0.004767623
191	0xbd82f0a6	-0.06393556
192	0xbd712ceb	-0.058880728
193	0x3d0a6d2f	0.03379553
194	0x3e804f44	0.25060475
195	0x3d511c34	0.051052287
196	0xbc4b0ba2	-0.01239291
197	0xbdf87ecb	-0.12133559
198	0xbe6a8297	-0.22901379
199	0xbe4ffdc4	-0.20311648
200	0x3b2aeede	0.0026082317
201	0x3e146c22	0.14494374
202	0xbdb529f2	-0.08845891
203	0xbda4c8c1	-0.08046103
204	0xbe0751f3	-0.13214855
205	0x3d331949	0.043725286
206	0x3cc15336	0.023599248
207	0x3d5f9a6f	0.05459064
208	0xbdbccb63	-0.092184804
209	0xbd13d9b5	-0.036096293
210	0x3dd30043	0.10302784
211	0xbea8529e	-0.32875532
212	0x3e13aed9	0.14422168
213	0xbd0404eb	-0.032231253
214	0x3dfd17fe	0.12358092
215	0x3de4668b	0.11152371
216	0x3e2a69c3	0.16641907
217	0xbe9a0ae2	-0.30086428
218	0xbd33406c	-0.04376261
219	0xbeb0331c	-0.34413993
220	0x3e0afdf8	0.13573444
221	0x3e3aa38a	0.18226448
222	0x3e3087f3	0.1723936
223	0x3eaca19d	0.3371705
224	0x3df28ffd	0.1184387
225	0xbd5c91f1	-0.053850118
226	0x3d8d5545	0.069010295
227	0xbc98f1ee	-0.018670049
228	0x3d02f9b0	0.0319764
229	0x3cfe6e14	0.031058349
230	0xbd9248e2	-0.071428075
231	0xbe54b0d1	-0.20770575
232	0xbd9f65dc	-0.077831
233	0xbe4a9054	-0.1978162
234	0xbdd1d056	-0.10244815
235	0xbe1fc419	-0.15602149
236	0x3daec050	0.085327744
237	0xbdfe4f94	-0.12417522
238	0xbdb7d158	-0.08975476
239	0xbcd5fb0b	-0.026120683
240	0x3d14f959	0.03637061
241	0x3cb73601	0.022364618
242	0x3c72a258	0.014809214
243	0x3d343fb6	0.044006072
244	0x3df98988	0.12184435
245	0x3e75f70e	0.24020025
246	0xbc6bdbb8	-0.014395647
247	0xbe188e4c	-0.14898032
248	0xbd3b4cee	-0.045727663
249	0xbe871f6d	-0.26391163
250	0xbe845696	-0.2584731
251	0xbd935d06	-0.07195477
252	0x3e7442f5	0.23853667
253	0xbe332887	-0.17495929
254	0xbe8f53c5	-0.279936
255	0xbd29eb94	-0.04148443

fc2.bias f4 [10]
0	0xbd0d45df	-0.034490462
1	0xbce5ccb0	-0.028051704
2	0xbd6789cc	-0.056527898
3	0xbcab3d34	-0.020903207
4	0xbd40b917	-0.047051515
5	0x3a3cc079	0.00072003115
6	0x3d12e828	0.035865933
7	0x3d5773a5	0.05260052
8	0x3e387558	0.18013513
9	0x3dc75700	0.09733391
