static/model/digit_model.pth (torch, 432432 bytes, 6 tensors)

layers.0.weight f4 [128, 784]
0	0xbc41e1d4	-0.011833627
1	0x3bb55f88	0.00553507
2	0xbc4816b8	-0.012212448
3	0x3ce0884a	0.027408738
4	0x3d192137	0.03738519
5	0xbc462724	-0.012094293
6	0x39d6a263	0.00040938248
7	0xbb8a259e	-0.00421591
8	0x3c2d3afb	0.010573144
9	0x3cc8168d	0.024424816
10	0x3d0a35ee	0.033742838
11	0xbbd7a126	-0.0065804897
12	0x3cd8d9b1	0.02647099
13	0xbc1148ad	-0.008867425
14	0xbca2cfd6	-0.019874495
15	0xbcc283c7	-0.023744477
16	0x3c33b8c5	0.010969345
17	0x3d02d156	0.03193792
18	0xbcba6acf	-0.022756008
19	0xbc8b2798	-0.016986653
20	0xbc8a1130	-0.016853899
21	0x3d0df7d3	0.03466017
22	0x3cb7d67e	0.022441145
23	0x3c0562b6	0.00814121
24	0x3cc9e1f8	0.024643883
25	0x3d1bb2c5	0.038012285
26	0x3d37d420	0.044880033
27	0x3bc25544	0.0059305746
28	0xbc593692	-0.0132576395
29	0x3c8cbb91	0.017179282
30	0x3c38414f	0.0112460395
31	0xbc94776c	-0.018123351
32	0xbc8c401c	-0.017120413
33	0x3c98f881	0.018673183
34	0x3c11d1d2	0.008900123
35	0xbc6588c0	-0.0140096545
36	0x3d020b3c	0.031748995
37	0x3cbc1b66	0.022962283
38	0x3c31dbbd	0.010855612
39	0x3d107b5f	0.035273906
40	0x3ceb4108	0.028717533
41	0xbc87060a	-0.016482372
42	0x3b633dfb	0.0034674394
43	0x3c422337	0.011849216
44	0xbb32ddc0	-0.0027292818
45	0x3d25b5d0	0.040456593
46	0xbca39895	-0.019970218
47	0xbc4821d3	-0.012215096
48	0x3c118024	0.008880649
49	0x3d355566	0.044270895
50	0xbbbc9b9b	-0.0057558543
51	0x3d1c4ae1	0.038157348
52	0xbcb60d3e	-0.022223111
53	0x3ca73cd0	0.02041474
54	0x3d062801	0.032752994
55	0xbc3f3aaa	-0.011671701
56	0x3c8e2284	0.017350443
57	0x3c660d7a	0.014041299
58	0x3c062602	0.008187773
59	0xbcafa132	-0.021439169
60	0x3bd4114a	0.0064717876
61	0x3b25d419	0.0025303422
62	0x3c41f141	0.011837305
63	0xbbbec41e	-0.005821719
64	0x3d2a5538	0.041585177
65	0xbbc57e2a	-0.006027003
66	0xbadf034a	-0.001701453
67	0x3d1695db	0.036764007
68	0xbbf54891	-0.007485457
69	0x3db5952f	0.08866345
70	0x3c996cbc	0.018728606
71	0x3ce11475	0.027475575
72	0x3d6f47b3	0.058417987
73	0x3d9dd323	0.07706287
74	0x3c9c3908	0.019070163
75	0x3d1606c1	0.036627535
76	0x3c0ee417	0.008721373
77	0x3ce86439	0.028368102
78	0xbc8d4c46	-0.017248284
79	0x3c825c08	0.015913025
80	0xba72265d	-0.0009237284
81	0x3c026d1e	0.007960586
82	0x3cef86ba	0.029239047
83	0x3c244184	0.010025386
84	0x3cf13784	0.029445417
85	0xbca84698	-0.020541474
86	0x3bc70226	0.006073254
87	0x3d2406b8	0.04004547
88	0x39dbe084	0.00041938212
89	0xbbdef3a4	-0.0068039466
90	0x3d061517	0.032734957
91	0x3a4f7109	0.0007913267
92	0x3cd651b0	0.026161999
93	0xbc68dcd5	-0.014212807
94	0xbc635d41	-0.013877214
95	0xbdd27384	-0.10275939
96	0xbcb53dd4	-0.022124209
97	0x3d9f58d3	0.07780614
98	0x3d28e488	0.04123357
99	0x3d871017	0.06594866
100	0xbd27460a	-0.04083828
101	0x3d60b875	0.054863412
102	0x3e3152b0	0.17316699
103	0x3e6bfff4	0.23046857
104	0x3e0b1894	0.13583595
105	0x3d4eadcd	0.050458718
106	0x3c1757e1	0.009237261
107	0x3b8e1457	0.004335921
108	0x3cd30697	0.025759978
109	0x3d1c642e	0.038181476
110	0x3a93a8a5	0.001126547
111	0xbbe16094	-0.006877968
112	0x3ce9241e	0.028459605
113	0xbcac9b12	-0.021070037
114	0x3d08d781	0.033408646
115	0x3cea0dfe	0.028571125
116	0xbc186f49	-0.009303876
117	0x3ce24f08	0.027625576
118	0x3c0e808f	0.008697643
119	0xbbab3a58	-0.005225461
120	0xbd2020a8	-0.039093643
121	0xbdbb0b12	-0.09132971
122	0xbd8f99fd	-0.07011793
123	0x3b2231b5	0.0024748866
124	0xbb32a3b1	-0.0027258212
125	0x3ccd30b4	0.025047638
126	0x3dac5001	0.08413697
127	0x3dae9d36	0.08526079
128	0x3d1c3ef4	0.038145974
129	0x3dc8a53f	0.09797143
130	0x3dd83945	0.10557798
131	0x3d99f6e6	0.07517795
132	0x3dd98eaf	0.10622918
133	0x3e1bcce2	0.15214875
134	0x3dcf77ac	0.101302475
135	0x3d756784	0.059913173
136	0x3db9d94e	0.09074651
137	0xbc977c9d	-0.018492037
138	0x3cae0b19	0.021245526
139	0x3cb40f9f	0.021980105
140	0xbc908140	-0.017639756
141	0xbcb0a092	-0.02156094
142	0x3ce7482e	0.02823266
143	0x3d04b624	0.032400265
144	0x3c382408	0.011239059
145	0xbbd4b4a4	-0.0064912606
146	0xbc4c4245	-0.012466972
147	0xbd8e42fd	-0.06946371
148	0xbcc5e014	-0.0241547
149	0xbc5dd6cd	-0.013539982
150	0x3d8f7aba	0.0700583
151	0x3dd30a0d	0.103046514
152	0x3d906867	0.07051163
153	0x3de5fd4d	0.11229954
154	0x3e02eebb	0.12786381
155	0x3e2545df	0.16139935
156	0x3d9ca3eb	0.07648452
157	0x3e139592	0.14412525
158	0x3e3addf5	0.18248732
159	0x3cff8288	0.031190172
160	0x3bf54e7f	0.007486164
161	0x3dc477c6	0.095931575
162	0x3dd6a5ff	0.1048088
163	0x3da9ddfa	0.08294292
164	0x3d8cf00d	0.068817236
165	0x3d3fbb25	0.046809334
166	0x3cb8f40a	0.022577304
167	0xbb8eed8a	-0.004361813
168	0x3c79e454	0.015252192
169	0x3c61aac9	0.0137736285
170	0xbbf4ebd1	-0.0074744006
171	0x3c1f7961	0.009733529
172	0xbb1314bf	-0.0022442786
173	0xbd203656	-0.03911432
174	0xbd0236b0	-0.031790435
175	0xbcf1e8b7	-0.029529912
176	0x3d39b8bf	0.045342203
177	0x3d0f7db9	0.035032008
178	0x3dc8d15a	0.09805556
179	0x3e0461a6	0.12927875
180	0x3e356413	0.17713957
181	0x3e7a82d5	0.24463971
182	0x3e7bdb2e	0.24595329
183	0x3e2bb132	0.16766813
184	0x3dd6fc16	0.104973
185	0x3da1290e	0.07869159
186	0x3d6bb7ec	0.05754845
187	0x3d268b08	0.040659934
188	0x3bbf2c07	0.005834106
189	0x3d02b01b	0.03190623
190	0xb95c180a	-0.0002098979
191	0x3babcca0	0.005242899
192	0x3c273b89	0.010207065
193	0x3ca14633	0.019686794
194	0xba2f0361	-0.0006676224
195	0xbcd18052	-0.025573883
196	0x3d1f121d	0.038835634
197	0xbce9fd8c	-0.028563283
198	0xbcc97027	-0.024589611
199	0x3c608baf	0.013705178
200	0xbd56cf6c	-0.052443907
201	0xbc91258d	-0.0177181
202	0xbd13cf1c	-0.036086187
203	0x3b7258b6	0.0036979145
204	0x3d934b7f	0.07192134
205	0x3d8a1d51	0.06743873
206	0x3e0acdcb	0.13555066
207	0x3df15573	0.11783876
208	0x3e4335f2	0.19063547
209	0x3e2a48b7	0.16629301
210	0x3e30eb67	0.17277299
211	0x3df444c4	0.119271785
212	0x3caf004a	0.021362443
213	0xbd3a40a1	-0.04547179
214	0xbd452551	-0.04813129
215	0xbe00d7dc	-0.12582344
216	0xbd59d191	-0.053178374
217	0xbdf78e60	-0.12087703
218	0xbda5777c	-0.080794305
219	0xbdcadb59	-0.099051185
220	0xbd6ff247	-0.058580663
221	0x3cb382e4	0.021913
222	0xbba08454	-0.0048985872
223	0x3ce689bc	0.028141849
224	0xbcc2b06e	-0.023765769
225	0x3cceca6d	0.025243009
226	0xbd140e74	-0.036146596
227	0x3c17389d	0.009229806
228	0xbd3c0dae	-0.045911483
229	0xbd1075d6	-0.035268627
230	0xbdc7b30e	-0.09750949
231	0xbd60c96f	-0.054879602
232	0x3dc498f1	0.09599484
233	0x3c5ad679	0.013356798
234	0x3d18001e	0.037109487
235	0x3d688774	0.056769803
236	0x3d0d4503	0.034489643
237	0xbdbf9242	-0.09354068
238	0xbd5dfdeb	-0.054197233
239	0xbcc14d38	-0.023596391
240	0xbd4b2e06	-0.04960444
241	0xbdafc209	-0.08581931
242	0xbe02d62f	-0.12777017
243	0xbe4b3ef0	-0.19848228
244	0xbe1a9b73	-0.15098362
245	0xbdf30058	-0.118653
246	0xbe2f10eb	-0.17096297
247	0xbe12ad3f	-0.143239
248	0xbd5d828f	-0.05407959
249	0xbd3bd013	-0.045852732
250	0x3c93b822	0.018032137
251	0x3ae77360	0.0017658286
252	0xbb6ddc20	-0.0036294535
253	0x3cf32f25	0.029685566
254	0xbc2f2eba	-0.010692293
255	0xbd246317	-0.040133562

layers.0.bias f4 [128]
0	0xbd37ac6c	-0.04484217
1	0x3cdea7ae	0.027179565
2	0xbcd9bbd2	-0.026578818
3	0x3cac929f	0.021066008
4	0x3cea67cf	0.028613953
5	0x3cdebe74	0.027190425
6	0x3c3aacad	0.011393708
7	0xbc0061c7	-0.007835812
8	0xbd8a1c1d	-0.067436434
9	0x3ce01c16	0.027357142
10	0x3ac3e4d8	0.001494552
11	0xbb6d6011	-0.003622059
12	0x3ca2d254	0.019875683
13	0x3caae115	0.02085928
14	0xbba9343a	-0.0051636966
15	0x3becef1f	0.007230654
16	0xbc6abcf9	-0.014327281
17	0x3c57ea3f	0.013178407
18	0xbce18387	-0.027528537
19	0xbd3b3fea	-0.04571525
20	0xbd0f883d	-0.035042036
21	0x3bf57dc9	0.0074918014
22	0xbc241482	-0.010014655
23	0xbc94d37f	-0.018167255
24	0x3bbd0a94	0.0057690833
25	0xbcd27d26	-0.025694441
26	0x3cd2dfaf	0.025741426
27	0xbbe56817	-0.007000934
28	0x3ca9b95c	0.020718269
29	0x3c33ca66	0.0109735485
30	0xbc8f3594	-0.017481603
31	0x3cde6ab1	0.027150484
32	0x3d305716	0.0430518
33	0x3c9c711f	0.01909691
34	0xb9b9d533	-0.00035444796
35	0x3d43abab	0.047771137
36	0x3c9e931e	0.01935726
37	0x3d27d386	0.04097321
38	0xbcdcccfe	-0.026953217
39	0xbd1fdfcb	-0.039031785
40	0x3bf2ae83	0.0074060573
41	0xbca0e165	-0.019638726
42	0x3a2e5430	0.0006650118
43	0xbd18c84e	-0.0373004
44	0xbd1a0787	-0.037604835
45	0x3c053111	0.008129374
46	0x3b54442b	0.0032389264
47	0x3c9710a0	0.018440545
48	0x3cd4e171	0.025986405
49	0xbc9aec8f	-0.018911628
50	0xbcba13b2	-0.02271447
51	0xbcd8eb2d	-0.026479328
52	0xbd29d2bb	-0.041460734
53	0x3caa0174	0.020752646
54	0x3aea24c7	0.0017863744
55	0xbd7d71a0	-0.06187594
56	0x3cc2fddb	0.023802688
57	0xba8676be	-0.0010258777
58	0x3cdf2923	0.027241295
59	0xbc9054b4	-0.017618515
60	0x3cea3c9b	0.028593352
61	0x3bf42658	0.00745086
62	0x3bfee8b6	0.007779206
63	0x3c2373b6	0.009976318
64	0xbc668463	-0.014069649
65	0x3d0e3c4d	0.034725476
66	0xbbfaa181	-0.0076486473
67	0xbc5064d5	-0.012719353
68	0xbacc11da	-0.0015569285
69	0xba147138	-0.0005662623
70	0x3c89e4cf	0.016832737
71	0xbc256f91	-0.0100974
72	0x3caa5c8f	0.020796089
73	0xbb933862	-0.0044928053
74	0xbca54a15	-0.020176927
75	0x3a8c29a6	0.0010693565
76	0x3c5655db	0.013081993
77	0xbc6a0556	-0.014283499
78	0x3c3785c9	0.01120133
79	0xbaee88b7	-0.0018198703
80	0xbd007c2e	-0.031368427
81	0xbcdf89a8	-0.02728732
82	0xbc6dd876	-0.01451694
83	0xbc86dd2a	-0.016462881
84	0x3bb3714a	0.0054761516
85	0x3aa29a47	0.0012405597
86	0xbcd2490b	-0.025669595
87	0x3bb2377f	0.0054387446
88	0x3ce9bb79	0.028531777
89	0x3d119cb2	0.035549827
90	0xbc697bc9	-0.014250704
91	0xbd3adffa	-0.045623757
92	0xbd04d56f	-0.03243011
93	0x3c1ff738	0.009763531
94	0x3ba63631	0.005072378
95	0xb8534c96	-5.0377646e-05
96	0x3d1a1ebd	0.03762697
97	0xbc81ed80	-0.01586032
98	0xbc95c580	-0.018282652
99	0xbc806803	-0.015674597
100	0x3b186251	0.002325196
101	0xbd270edf	-0.040785667
102	0xbd251501	-0.040303234
103	0x3c9c3ddf	0.019072471
104	0x3c9b2f7b	0.018943539
105	0x3c9317a1	0.017955603
106	0xbab48a49	-0.0013774122
107	0xbd5f284a	-0.054481782
108	0xbc2605bd	-0.010133204
109	0xbbbf65f1	-0.00584101
110	0x39c6e20a	0.00037933915
111	0xbca85b7d	-0.020551438
112	0xbbcbb9ed	-0.0062172324
113	0x3d46ae15	0.04850586
114	0x3c06a07b	0.008216972
115	0x3d1faa78	0.03898093
116	0x3d059e99	0.032621954
117	0x3ca92270	0.020646304
118	0x3c2c52f3	0.0105178235
119	0xbc5bfe51	-0.013427333
120	0x3c65084e	0.013979031
121	0xbd051241	-0.03248811
122	0xbc305ed5	-0.010764797
123	0xbc92bb56	-0.017911594
124	0x3c334aa0	0.010943085
125	0xbcaba2d2	-0.020951662
126	0x3c6dc5eb	0.014512519
127	0xbd29d54b	-0.041463178

layers.1.weight f4 [50, 128]
0	0x3dc8ad4d	0.097986795
1	0xbeac8c80	-0.33700943
2	0x3b8a05aa	0.004212101
3	0xbd2a9189	-0.0416427
4	0xbbbe6241	-0.0058100526
5	0x3e0e6faa	0.13909784
6	0xbdb56ef7	-0.088590555
7	0x3ca0b51d	0.019617612
8	0xbdf6c993	-0.12050166
9	0x3d19d96f	0.037560876
10	0xbccef613	-0.025263822
11	0x3c1c3dad	0.009536189
12	0x3d73df3b	0.05953906
13	0xbda45a18	-0.080249965
14	0xbc8ca7a5	-0.017169783
15	0x3e85cf6d	0.26134816
16	0x3dac3f52	0.08410515
17	0x3ecdaee1	0.40172485
18	0xbdf0480a	-0.1173249
19	0xbdd9f89d	-0.10643122
20	0x3cdcd2a1	0.026955904
21	0x3e007bec	0.12547272
22	0xbe0e2df5	-0.13884719
23	0xbd54b006	-0.05192568
24	0x3eb7cbe8	0.35897756
25	0xbdf76235	-0.120792784
26	0x3d41ae80	0.047285557
27	0x3d9b2b43	0.07576611
28	0x3d6e5db0	0.058194816
29	0x3dd070bd	0.10177753
30	0x3ddbdde2	0.1073568
31	0xbe0d152d	-0.13777609
32	0x3d6f78b8	0.058464736
33	0xbb069858	-0.0020537581
34	0xbe0c4ae3	-0.13700442
35	0xbd1799d1	-0.037011925
36	0xbc7cc206	-0.015427118
37	0xbce12a45	-0.027485976
38	0xbe077936	-0.13229832
39	0x3d870729	0.065931626
40	0x3cb1e327	0.02171476
41	0x3d584cce	0.05280762
42	0xbd53e605	-0.051733036
43	0x3dd6eed4	0.104947716
44	0xbcaf4958	-0.021397278
45	0x3d0d6d0f	0.034527835
46	0x3cf8f166	0.030388545
47	0xbc36c596	-0.011155507
48	0x3dc44556	0.09583537
49	0xbc18f1fe	-0.009335039
50	0xbe0dda71	-0.1385286
51	0x3d2cc289	0.04217771
52	0xbd0d1288	-0.0344415
53	0x3d32c50a	0.043644942
54	0x3e067103	0.13129048
55	0xbe3a78ef	-0.18210195
56	0x3dd6e9e7	0.10493832
57	0xbd095a32	-0.033533283
58	0x3d5d90db	0.054093223
59	0x3d1e39f3	0.038629483
60	0xbd226aa8	-0.039652497
61	0xbe127bf3	-0.14305095
62	0x3cd32b76	0.02577756
63	0x3dbf1270	0.093296885
64	0x3dd827d1	0.105544694
65	0xbde9ba5e	-0.114125
66	0x3db48083	0.08813574
67	0xbcc41515	-0.023935834
68	0x3c652109	0.013984927
69	0x3d2e0f16	0.042494856
70	0x3d2d58a6	0.04232087
71	0xbe2413c2	-0.16023162
72	0x3c805554	0.015665688
73	0x3d554b01	0.052073482
74	0x3db7c816	0.0897371
75	0x3e1d7306	0.15375909
76	0x3c3183f1	0.01083468
77	0x3da4c54e	0.080454454
78	0xbc39ee3a	-0.011348302
79	0xbce05452	-0.027383957
80	0xbdc77fe0	-0.09741187
81	0x3a0355e7	0.0005010054
82	0xbe161c44	-0.1465922
83	0xbd83ae81	-0.06429768
84	0xbdfbfaad	-0.12303672
85	0xbdb906fd	-0.09034536
86	0x3dccd02c	0.10000643
87	0x3d915df9	0.07098002
88	0xbcce6ff6	-0.025199872
89	0x3cb33c26	0.021879267
90	0xbd23e577	-0.040013757
91	0x3d4e6bf4	0.05039592
92	0xbce9e6e4	-0.02855248
93	0x3e77f784	0.24215513
94	0x3d923054	0.07138124
95	0xbd8ac4f9	-0.06775851
96	0x3d9f0d93	0.07766261
97	0x3d37466c	0.044744894
98	0xbe3fd9b8	-0.18735397
99	0xbcf32602	-0.02968121
100	0x3d118162	0.03552378
101	0xbe1b9338	-0.15192878
102	0x3d65ae28	0.05607429
103	0xbd8e8077	-0.069580965
104	0xbd851cf2	-0.064996615
105	0xbe0a3f7e	-0.13500783
106	0x3c0529f1	0.008127675
107	0x3cf840a2	0.030304257
108	0xbdbd76bc	-0.092511624
109	0xbe0aa9db	-0.13541357
110	0x3da5eb37	0.08101504
111	0x3c1e3999	0.009657287
112	0xbd098112	-0.033570357
113	0x3da45f38	0.08025974
114	0x3bfcc336	0.0077137006
115	0xbd37eca8	-0.044903427
116	0xbd9d2bd4	-0.07674375
117	0xbe083e46	-0.13305005
118	0xbcea5905	-0.028606901
119	0x3e2210ec	0.15826768
120	0xbc25d1d5	-0.010120829
121	0x3d3b3d12	0.045712538
122	0xbdbf9838	-0.09355205
123	0xbb8ad3cd	-0.0042366744
124	0x3dfd8f4c	0.12380847
125	0xbdbb0a0a	-0.09132774
126	0xbd7badc9	-0.06144503
127	0x3ddc6648	0.10761696
128	0x3e039bb6	0.12852368
129	0xbc92b7ad	-0.017909849
130	0x3cd57cc7	0.026060475
131	0x3e189558	0.1490072
132	0xbcba6cd1	-0.022756966
133	0x3dd9a43a	0.10627027
134	0xbda16154	-0.07879892
135	0x3d994842	0.07484485
136	0x3dd1e2f8	0.10248369
137	0xbd81639b	-0.06317826
138	0xbc7fabb9	-0.015604907
139	0xbddf7673	-0.10911264
140	0x3dec9e75	0.11553661
141	0xbcdf8226	-0.02728374
142	0xbdb95094	-0.09048572
143	0x3daf96c9	0.08573682
144	0x3be3f36d	0.006956509
145	0x3c989c08	0.018629089
146	0xbd59b952	-0.05315525
147	0xbcd10fda	-0.025520254
148	0x3e210b77	0.1572703
149	0xbcf661ae	-0.030075874
150	0xbc8da167	-0.017288877
151	0xbdd10196	-0.102053806
152	0x3bb46aa7	0.005505878
153	0x3d9c1f39	0.07623143
154	0x3e44eee5	0.19231756
155	0x3ce2d5d8	0.02768986
156	0xbe58295f	-0.21109532
157	0x3db46585	0.08808426
158	0x3e26e314	0.16297561
159	0x3d0a6f39	0.033797476
160	0xbeb8a158	-0.36060596
161	0xbd7f7138	-0.062363833
162	0xbd3ef34a	-0.046618737
163	0xbe2705ea	-0.1631085
164	0x3de70584	0.11280349
165	0xbe2a9842	-0.16659644
166	0x3e1eb480	0.15498543
167	0x3da28373	0.07935228
168	0xbdc303f2	-0.09522237
169	0xbe71f54d	-0.23628731
170	0xbd3968f1	-0.045266096
171	0xbe569277	-0.2095431
172	0xbdfefbe5	-0.12450389
173	0xbd9a22cd	-0.07526169
174	0x3c30eacb	0.0107981665
175	0x3d8daec5	0.069181
176	0xbca48f4d	-0.020087862
177	0x3dae746b	0.08518299
178	0xbc580b18	-0.013186239
179	0x3de589ca	0.11207922
180	0x3d721690	0.05910355
181	0xbd5b74aa	-0.053578056
182	0xbd9b7d36	-0.075922415
183	0x3dc407e9	0.09571821
184	0x3d375df9	0.044767354
185	0xbd9b2e47	-0.07577186
186	0xbe1a69d9	-0.1507944
187	0xbd55a18e	-0.052156024
188	0x3dc9e048	0.098572314
189	0x3dcb128a	0.099156454
190	0xbdb9d73b	-0.09074255
191	0x3d5ef313	0.054431032
192	0xbd91993b	-0.071093045
193	0x3dbdd940	0.09269953
194	0xbb1814ba	-0.0023205713
195	0x3dd8a389	0.10578067
196	0x3d176c95	0.036968786
197	0x3d7f641c	0.06235133
198	0xbd07ee9a	-0.033186533
199	0x3c32fa5c	0.010923948
200	0x3da77b61	0.081778295
201	0x3cec7d9f	0.028868495
202	0xbe0c0921	-0.13675357
203	0xbeaaf6ce	-0.33391422
204	0xbdaacad2	-0.08339466
205	0xbdc63103	-0.09677317
206	0xbd50f930	-0.051018894
207	0x3dd40a0a	0.10353477
208	0xbc8bc4cd	-0.017061615
209	0xbe157b77	-0.1459788
210	0x3d011232	0.031511493
211	0x3e32fe5b	0.17479841
212	0x3db3de98	0.08782691
213	0xbce5b5ec	-0.028040849
214	0x3d37dea0	0.044890046
215	0xbce6a860	-0.02815646
216	0x3dcd02e0	0.10010314
217	0x3d98547c	0.07437989
218	0x3c82bc9e	0.01595908
219	0xbe51c493	-0.20485143
220	0x3d38c313	0.045107912
221	0xbdc44761	-0.09583927
222	0x3cd090dc	0.0254597
223	0xbd3c0aac	-0.045908615
224	0xbdd73630	-0.10508382
225	0x3b99a9fd	0.0046894536
226	0x3e5ec439	0.2175454
227	0xb96a9024	-0.00022369676
228	0xbe12ac81	-0.14323618
229	0xbd8659d0	-0.06560099
230	0xbd81c654	-0.06336656
231	0x3d3c7a11	0.04601485
232	0x3d995fd0	0.07488978
233	0x3d834ff9	0.06411738
234	0x3dbb1946	0.0913568
235	0xbdc4ea8a	-0.09615047
236	0xbda12baa	-0.078696564
237	0x3deab984	0.114611655
238	0xbdefa964	-0.117022306
239	0xbd5c71f0	-0.053819597
240	0x3c16d372	0.009205686
241	0xbd5ca39d	-0.05386697
242	0x3e28e3bc	0.16493124
243	0xbd46592f	-0.048424896
244	0xbcafe4e4	-0.021471448
245	0x3d511d45	0.051053304
246	0x3ced804f	0.028991846
247	0x3c3247df	0.010881393
248	0xbd59a576	-0.05313631
249	0x3e468913	0.19388227
250	0xbcd82191	-0.026383193
251	0xbe4d8463	-0.20070033
252	0x3d534478	0.05157897
253	0x3e133807	0.14376841
254	0xbd1866e4	-0.0372075
255	0xbe2847c4	-0.16433626

layers.1.bias f4 [50]
0	0x3c051943	0.008123699
1	0xbdcb3d45	-0.099237956
2	0x3d79cc03	0.060985576
3	0x3c82dd5f	0.015974699
4	0x3cb9f09b	0.022697737
5	0x3d9e7321	0.07736803
6	0xbda076db	-0.0783517
7	0xbd7b7b38	-0.061396807
8	0xbdc16fc3	-0.09445145
9	0x3b74798e	0.0037303898
10	0xbd2b3efb	-0.04180811
11	0x3cdd5048	0.02701582
12	0xbd02f3c9	-0.031970773
13	0x3db9aca0	0.09066129
14	0xbcf55a44	-0.029950269
15	0xbd7dcce7	-0.06196299
16	0x3e006d87	0.12541781
17	0x3d922d7b	0.07137581
18	0xbe135c0f	-0.14390586
19	0xbdf761f2	-0.120792285
20	0x3ce8b10e	0.028404739
21	0x3ba8b8dc	0.00514899
22	0x3c535bc2	0.012900295
23	0xbbcbd5b0	-0.006220542
24	0x3dbe9594	0.093058735
25	0xbd3cf3cd	-0.046130944
26	0x3d913450	0.07090056
27	0x3d05a875	0.032631356
28	0x3b686325	0.0035459485
29	0xbd4d15f7	-0.050069775
30	0xbe2496a4	-0.1607309
31	0x3db00646	0.085949466
32	0x3d6f7b50	0.05846721
33	0xbddc4bae	-0.10756622
34	0xbdad4c7f	-0.08461856
35	0xbd99d672	-0.07511605
36	0x3cdcb630	0.026942343
37	0xbcfd948a	-0.030954618
38	0xbd0dfd30	-0.034665287
39	0x3c159911	0.009130732
40	0x3dd02937	0.10164111
41	0x3e2bf582	0.16792873
42	0x3d1f979e	0.038962953
43	0x3e3ba1a6	0.18323383
44	0x3d1578c5	0.036492128
45	0xbda3e480	-0.08002567
46	0xbd82bf88	-0.06384188
47	0x3ddadc30	0.10686529
48	0xbdc16807	-0.0944367
49	0xbd76ac32	-0.060222812

layers.2.weight f4 [10, 50]
0	0xbea74559	-0.32670096
1	0x3c936953	0.017994558
2	0x3d86e159	0.065859504
3	0x3db9f74b	0.090803705
4	0xbd1dc645	-0.038519163
5	0xbe28fbcc	-0.16502303
6	0xbdd96be2	-0.1061628
7	0xbb11791d	-0.0022197433
8	0x3d7c5640	0.061605692
9	0x3e5808ff	0.21097182
10	0xbdd7b650	-0.1053282
11	0xbd8cedf8	-0.068813264
12	0x3d8cb40b	0.06870278
13	0xbe0c1750	-0.13680768
14	0xbdda47e8	-0.10658246
15	0x3d11dedc	0.035612926
16	0x3e257d97	0.1616119
17	0xbea1d3fa	-0.31607038
18	0xba0b6b90	-0.0005318457
19	0x3d9c0313	0.07617774
20	0xbe3ef75a	-0.18649045
21	0x3db276b0	0.08714044
22	0xbdeb500c	-0.11489877
23	0xbbcc0166	-0.0062257526
24	0x3d171756	0.03688749
25	0xbe8b4d2c	-0.27207315
26	0xbca3f10d	-0.020012403
27	0xbe5919ce	-0.2120125
28	0x3d530e24	0.051527157
29	0xbe8661a8	-0.2624638
30	0xbe730c6d	-0.23735209
31	0x3db87dcf	0.09008371
32	0xbdfdb9bd	-0.123889424
33	0xbd6dfc58	-0.058101982
34	0x3d9360e6	0.07196216
35	0x3e3ff21d	0.18744703
36	0xbe04748f	-0.12935089
37	0x3e383788	0.17989933
38	0xbdda23df	-0.10651373
39	0x3dad513e	0.08462761
40	0x3e16c0eb	0.1472203
41	0x3d03f152	0.032212563
42	0xbe2be966	-0.16788253
43	0xbe64738a	-0.223097
44	0xbdfb6603	-0.122753166
45	0x3de18e61	0.11013485
46	0xbdcb881f	-0.099380724
47	0xbe8edd4e	-0.27903217
48	0xbe897101	-0.26844028
49	0x3db95b6f	0.09050643
50	0x3d304db8	0.04304287
51	0x3e5092ce	0.20368502
52	0x3d718364	0.058963194
53	0x3d3d67a9	0.046241436
54	0x3d1e1c0b	0.038600963
55	0xbe2a21e6	-0.16614494
56	0xbdb3d199	-0.08780212
57	0x3e30d072	0.17267016
58	0x3dd9a623	0.10627391
59	0x3e632da8	0.22185385
60	0xbe338258	-0.17530191
61	0x3d844dad	0.06460128
62	0xbdbe86ff	-0.09303092
63	0x3e17f222	0.1483846
64	0xbe6e2f5d	-0.23260255
65	0x3e711d83	0.23546414
66	0xbe998ad2	-0.29988724
67	0x3d26439d	0.040591825
68	0xbd8ebd28	-0.069696724
69	0xbe0ad76f	-0.13558744
70	0xbdeb612a	-0.11493142
71	0xbea07eac	-0.31346643
72	0xbd8bf3eb	-0.06833633
73	0xbc7d7c57	-0.015471539
74	0xbe8f4f2a	-0.27990085
75	0x3e68602b	0.22692935
76	0xbe830bd0	-0.2559495
77	0x3cbaec6a	0.02281781
78	0xbc28dcd1	-0.010306553
79	0x3e82a4fe	0.25516504
80	0x3e2b7ac7	0.16746055
81	0xbae6cd77	-0.0017608841
82	0xbe21c84f	-0.15799068
83	0x3d6ce853	0.05783875
84	0xbe2490d4	-0.16070873
85	0x3c06a4c9	0.008217999
86	0x3d3445df	0.044011947
87	0xbd89a57f	-0.06721019
88	0x3ddcfe10	0.10790646
89	0xbe4cac0c	-0.19987506
90	0x3d599a48	0.05312565
91	0xbe7e6672	-0.24843767
92	0xbdbd2225	-0.09235028
93	0xbd4ad8e9	-0.049523268
94	0x3d8e38f8	0.0694446
95	0xbe54176f	-0.20712064
96	0xbc529394	-0.012852568
97	0x3e115154	0.1419118
98	0xbe3d9750	-0.18514752
99	0xbe4cf06d	-0.2001359
100	0xbdb984dc	-0.09058544
101	0x3a6002e0	0.000854535
102	0x3d59fcc4	0.05321957
103	0xbe237fc1	-0.15966703
104	0xbe217ff4	-0.15771466
105	0xbef2b635	-0.47404638
106	0x3cf63a22	0.030057017
107	0xbdb5af7c	-0.088713616
108	0xbe76e9af	-0.2411258
109	0x3e1b9b56	0.15195975
110	0x3c0d20bf	0.008613764
111	0xbe8cd3ef	-0.27505443
112	0x3e4eeaf9	0.20206822
113	0x3d3b7435	0.04576512
114	0xbe232b59	-0.15934505
115	0xbe8fa0e8	-0.2805245
116	0x3dc9e5a2	0.09858252
117	0xbdb32d97	-0.0874893
118	0xbd1c89ba	-0.038217284
119	0xbdf9ff2d	-0.12206874
120	0xbd7cb551	-0.061696354
121	0x3d00b386	0.031421207
122	0xbd967b1d	-0.07347701
123	0xbdf243e5	-0.11829356
124	0xbe1da9c2	-0.15396789
125	0x3e431d11	0.19054057
126	0x3d7204eb	0.05908672
127	0xbe61e422	-0.22059682
128	0x3e05cb77	0.13065897
129	0x3e6bfa7b	0.2304477
130	0x3d89dba6	0.06731348
131	0x3dab4d55	0.08364359
132	0xbeb21b6e	-0.34786552
133	0x3d889d2d	0.06670604
134	0xbd10a68e	-0.03531509
135	0x3cef08aa	0.029178936
136	0xbd76b4cb	-0.06023101
137	0xba87659e	-0.0010329967
138	0x3e34db81	0.17661859
139	0xbbeace1d	-0.007165684
140	0x3e2a0891	0.1660483
141	0xbe578268	-0.2104584
142	0xbc7a15c6	-0.01526398
143	0x3d50fb2d	0.05102079
144	0x3dda4e48	0.10659462
145	0x3cdafa1e	0.026730593
146	0x3d6a309a	0.057175256
147	0xbe53e4b2	-0.20692709
148	0xbdb6ad40	-0.089197636
149	0x3e1aa190	0.15100694
150	0x3d75b734	0.05998917
151	0xbe26205a	-0.16223279
152	0xbdb4b4e1	-0.088235624
153	0xbdbb652b	-0.09150156
154	0xbe48269a	-0.19545975
155	0x3df89edc	0.12139675
156	0xbe0cf66f	-0.13765882
157	0xbe77c7d9	-0.2419733
158	0x3dbb87ca	0.09156759
159	0x3daed4d3	0.08536687
160	0x3b144a86	0.0022627427
161	0x3d46cb81	0.04853392
162	0xbd31e14f	-0.04342776
163	0xbe9fc5cf	-0.31205603
164	0xbe15bd6d	-0.14623041
165	0xbe02ee6b	-0.12786262
166	0xbdefadce	-0.117030725
167	0x3d99e286	0.07513909
168	0xbe2912f1	-0.16511132
169	0xbd48f5be	-0.049062483
170	0x3d11c80e	0.035591178
171	0xbd16f0c0	-0.03685069
172	0xbd231203	-0.0398121
173	0xbe0bf44a	-0.13667408
174	0x3d9119cf	0.07085001
175	0x3df3947c	0.118935555
176	0xbcdbaa4a	-0.026814599
177	0xbe8b6227	-0.27223322
178	0x3dfc6fc0	0.12326002
179	0xbd37e3ce	-0.044894986
180	0x3cd7c6fe	0.026340004
181	0x3d41a4b9	0.047276232
182	0x3dc6adcb	0.09701117
183	0x3cf187d9	0.029483723
184	0x3e1b2e42	0.15154365
185	0xbe601da0	-0.21886301
186	0xbe84b25c	-0.25917327
187	0x3e247e1b	0.1606373
188	0x3e2b4048	0.1672374
189	0x3e735056	0.23761114
190	0xbde335ba	-0.11094232
191	0xbe5d55e6	-0.21614799
192	0x3dbd07a1	0.09229971
193	0x3e059dc4	0.13048464
194	0x3e0ab4ac	0.13545483
195	0xbc904e1b	-0.017615369
196	0xbd90c9f9	-0.07069773
197	0xbe1773b1	-0.14790227
198	0x3e54c150	0.20776868
199	0xbd6f00dd	-0.058350433
200	0xbd9fb2f2	-0.07797803
201	0xbd7be8cb	-0.061501306
202	0xbdb08b79	-0.08620352
203	0xbbc6614e	-0.00605408
204	0xbe60560a	-0.21907821
205	0xbdd94c22	-0.10610224
206	0x3de6d95f	0.11271929
207	0xbe1a2bd2	-0.15055779
208	0xbc7a9ff9	-0.0152969295
209	0xbd41455b	-0.047185283
210	0x3e82d0c9	0.25549915
211	0x3e482a36	0.19547352
212	0xbe07a078	-0.13244808
213	0x3dd521e0	0.10406852
214	0xbc49dbc2	-0.012320461
215	0x3d5b2968	0.053506285
216	0xbe010278	-0.12598598
217	0x3d9a2e53	0.07528367
218	0x3da82e9e	0.082120165
219	0x3da4a483	0.080391906
220	0xbd652085	-0.055939216
221	0x3bb14c99	0.0054107425
222	0xbe61023b	-0.21973507
223	0xbcbe75e8	-0.023249581
224	0xbd8b614d	-0.06805668
225	0xbdf33df0	-0.11877048
226	0x3e4a6ccd	0.19768067
227	0x3d739c58	0.059475273
228	0x3d4de995	0.05027159
229	0xbea08979	-0.31354883
230	0x3e1dede8	0.15422785
231	0xbe9e0964	-0.3086654
232	0xbe1f237b	-0.15540878
233	0xbe37599a	-0.17905274
234	0xbe217941	-0.15768911
235	0x3de79cc2	0.11309196
236	0x3e4887fb	0.19583122
237	0xbc14c745	-0.009080713
238	0xbc5fe0b8	-0.013664417
239	0xbe3cde02	-0.18444064
240	0xbe41696e	-0.18887874
241	0x3e10d868	0.14145052
242	0x3e48eafc	0.1962089
243	0xbced5bba	-0.028974403
244	0xbe2993b6	-0.16560254
245	0x3cc8ec68	0.02452679
246	0x3e060e63	0.13091426
247	0x3dddc7e0	0.10829139
248	0x3d67537e	0.05647611
249	0x3de1ac7e	0.110192284
250	0x3e019b44	0.12656885
251	0xbd90410f	-0.07043659
252	0xbbcc017b	-0.0062257624
253	0x3df380a6	0.11889772
254	0x3d751710	0.059836447
255	0xbb5e6fa8	-0.0033941064

layers.2.bias f4 [10]
0	0x3cc7655b	0.024340322
1	0xbd4dc59c	-0.050237283
2	0x3dda79e3	0.10667779
3	0x3ce7d40f	0.02829936
4	0xbdd4f95c	-0.10399124
5	0x3ddf979f	0.10917591
6	0xbe0ba386	-0.13636598
7	0x3df030ad	0.11728034
8	0x3e7f572c	0.24935597
9	0x3c5010e2	0.012699338
