static/model/digit_model.pth (torch, 409136 bytes, 4 tensors)

fc1.weight f4 [128, 784]
00000000: 98c3 133c 71f4 3d3d a531 a73c 0b65 ce3c
00000010: 6009 8b3c a57a a53c 6b34 4c3d 2380 5d3d
00000020: 23c7 0b3d 85e5 a63c 1e5a 353b 1820 fe3c
00000030: cd95 143d 18d4 ce3c 607a 5e3c fc69 053d
00000040: 2b23 11bb 3b60 26bb 2dca 3c3d d881 003d
00000050: a37f 4e3b 19ef 853d 29e0 193d 4989 603d
00000060: 5413 093d 226d 07bb d1b7 0c3d fec4 8a3b
00000070: c0b9 1a3b 9012 b6bb e3c6 543d 544c e53c
00000080: 5373 9c3b 8f04 163d 2bdb c43c d33b a73c
00000090: 4e3b b13c f0e7 523a 7716 793d f83c ba3b
000000a0: 9054 043d 79f7 773d 632a f53c 31b2 eb3c
000000b0: 010f 78bc a28f 2b3d 512b 0e3d 5ba1 2d3d
000000c0: 74b9 893d 21e8 a23c a441 3e3d bfd0 bb3b
000000d0: 3abb ba3b 96e1 843d a57b 663d df18 893b
000000e0: cc0e e73c 03a1 1c3d f9b5 853d 40f0 7f3d
000000f0: 12d3 cd3c c7ab 243d 1492 153d 1e60 8f3c
00000100: b1f0 81bc c795 4f3c ccf0 a8bb bce9 76bc
00000110: 5f9f d7bc 849e f23b 9238 f23c cd5f 89bc
00000120: 3e4c ab3b 9429 583c ef72 c0bc dd83 82bc
00000130: 13a1 003d 0621 5b3d 3724 983c f8fd 683d
00000140: aea6 6e3d b42e 583c 39b5 6c3d c210 0e3c
00000150: 2042 f83c c953 bdb8 2126 1e3d 4ba6 633c
00000160: 2094 2c3d 84b3 453b 030a aabb 3d0a 683d
00000170: f8f1 b23d 31eb 643c 1f1b ce3d 41a2 9a3d
00000180: 59a5 ee3c abeb 453d 6bdd cb3d 6434 b63d
00000190: da5c 663c 86eb 843c 571f 5dbd 200a 933d
000001a0: 0b30 1e3e 73bc 8f3b b67c 483d 6a97 933d
000001b0: 3a07 8a3c bc68 d5bc 39ae 613d 79d3 aabb
000001c0: d341 4c3d 9df1 dc3c b312 203d 8fad 9bbb
000001d0: 37a0 8d3d 32c2 093d 3d98 84bd 4876 2f3d
000001e0: 41c0 ae3c daba 58bd 6ce0 1bbd caf8 8c3d
000001f0: e2f6 8d3d 15a7 203e 5f04 603d b342 3b3d
00000200: 1cf4 1e3d 4aca 39be a9dd 56be 41b3 bf3c
00000210: 32d9 a13d 5c90 063e c461 1c3e 05bc 903d
00000220: 48b3 963d 6d77 0dbb 82fc 163d 979a c83b
00000230: fb54 143d 1e56 fa3c de45 823c f136 743d
00000240: 183e 773d f831 0d3e ab65 833d 02ce 5a3d
00000250: c615 8f3d 0f33 703d 70e1 4a3c ca2e 623d
00000260: 8674 543d f06f 8f3d 69e2 6b3d edfb 3c3d
00000270: 5b42 48bd f9df 94bd ce02 9b3c 2935 ba3c
00000280: d1f0 933d c732 13bd d693 ee3c 4da9 313e
00000290: 3a71 ae3d bd7a a93c bd76 2b3b 78e2 b43b
000002a0: 75cd 1e3d da50 4f3d 9065 d73c 410f 8e3c
000002b0: 03b6 d53c 2067 cf3d 42a5 273c 6a57 493c
000002c0: 90d8 a83d a375 e23d 6382 dd3d 5e84 c23d
000002d0: 44b7 3b3b 46fb 913d bd41 12bd 208a b0bc
000002e0: 7adf 98bd 5e46 3dbd 68ca 52bd 0b4d ed3d
000002f0: 1276 163e 1746 0c3e 4288 b0bc 08ec 1a3e
00000300: e3cc 353e eb6c 223d 1dd2 163d 6e47 713d
00000310: 0222 503a f1be 0b3d 0273 413d 4f9a 753d
00000320: a6a0 debb f557 183d cf2b 33bd 82da a33d
00000330: 1d9f de3b 2c9e 503c 0c9d ba3c 5a13 3dbd
00000340: c51f 60bd 8770 6cbd 63af ccbd b220 83bd
00000350: d58e c4bd df7f d8bd 9b04 c6bc a7c7 c13d
00000360: a217 ab3d b492 a33c def2 373c 81c3 773e
00000370: af72 823e dc08 503d 2cdd c83c 34e7 fa3a
00000380: cdd2 443c 1bc9 0239 f299 ca3d 48d8 d33d
00000390: 8322 bfbc 609a 9f3d b146 433b 6089 a83c
000003a0: a386 83bd 5d33 adbd 746a bfbd 8fef 15bd
000003b0: 264c d6bc 9a8e a0bd b0c9 3dbd 67ec ccbb
000003c0: d18f 38bc 330f 8dbc ee69 153d 7cf8 893b
000003d0: 2188 683d cd09 e63d 932d c63d 046e 063d
000003e0: 4fa2 d83d 0854 473c 3868 ba3c 83b0 393c
000003f0: c772 963c 939c 173d 5de4 c03c f556 113c
0.009018801 0.046375696 0.020409415 0.025194665 0.016972244 0.020200083 0.049854677 0.05407728
0.03412546 0.020373115 0.0027672122 0.031021163 0.036275674 0.025247619 0.013578981 0.032571778
-0.0022146206 -0.0025386948 0.046091247 0.03137383 0.0031509183 0.06539745 0.03756729 0.054818425
0.0334657 -0.0020664413 0.03435499 0.004234909 0.002360925 -0.005556412 0.051947486 0.027990498
0.00477449 0.03662544 0.024030289 0.020414269 0.021634724 0.00080454256 0.06081244 0.0056835376
0.032307208 0.060538743 0.029927438 0.028771492 -0.015140296 0.041885026 0.03470928 0.04239021
0.067248255 0.019886078 0.04644932 0.0057316716 0.0056985887 0.064883396 0.05627026 0.004183873
0.028205298 0.03823949 0.06528849 0.06248498 0.02512506 0.040202882 0.036516264 0.017501887
-0.01586184 0.012669987 -0.0051556583 -0.015070375 -0.026321111 0.0074041504 0.02956799 -0.016769314
0.0052275946 0.013193507 -0.023492305 -0.015932018 0.031403612 0.05349829 0.018571956 0.05688283
0.058264427 0.013194729 0.057790015 0.008670988 0.030304968 -9.0278285e-05 0.03861058 0.013894628
0.04213345 0.0030166814 -0.005189182 0.05665039 0.08737558 0.01397209 0.10063767 0.07550479
0.029131578 0.048320454 0.099543415 0.088967115 0.0140602235 0.016225588 -0.053984966 0.071796656
0.15448014 0.0043864786 0.04894706 0.07206614 0.016849149 -0.026050918 0.055097792 -0.005213198
0.049867462 0.026970679 0.039080333 -0.0047509144 0.06915324 0.033632465 -0.0647435 0.04283741
0.021331908 -0.05291257 -0.038055822 0.0688339 0.06931855 0.15688737 0.05469167 0.045717906
0.03880702 -0.18143573 -0.20982994 0.023400905 0.07902755 0.13141006 0.1527167 0.07067112
0.07358414 -0.0021586076 0.036861904 0.006121944 0.036213856 0.030558642 0.015902456 0.05962271
0.06036195 0.13788593 0.06415876 0.05341912 0.06986575 0.058642443 0.01238285 0.055220403
0.051868938 0.07003772 0.05758897 0.046138693 -0.048891407 -0.07269282 0.018922236 0.022730427
0.072236665 -0.035937097 0.029123228 0.1734974 0.0851769 0.020688409 0.0026163303 0.0055201612
0.038770158 0.050614215 0.026293546 0.017341258 0.026087767 0.101270914 0.010232272 0.012288908
0.08244431 0.11057594 0.10815885 0.09497903 0.002864317 0.07128005 -0.035707224 -0.021550238
-0.074645 -0.046209686 -0.05146256 0.115869604 0.14693478 0.13698612 -0.021549348 0.15129101
0.1775394 0.039654654 0.036821473 0.05890601 0.0007939638 0.034117643 0.04722882 0.059961613
-0.006794053 0.037193257 -0.04374295 0.080006614 0.00679387 0.012733024 0.022779964 -0.046161033
-0.054717798 -0.057724502 -0.0999439 -0.064027205 -0.095975555 -0.105712645 -0.024172118 0.09461909
0.08354117 0.019967414 0.011227338 0.24195673 0.25478122 0.0507897 0.024519525 0.001914239
0.012013149 0.00012472684 0.09892644 0.10343987 -0.023331886 0.077931166 0.0029796774 0.020573318
-0.06422164 -0.084570624 -0.09346476 -0.036605414 -0.026159357 -0.07839699 -0.046334922 -0.0062537673
-0.011264757 -0.017219162 0.036477976 0.00421053 0.056770448 0.11232338 0.09676661 0.032819763
0.10577833 0.012166031 0.022754773 0.011333588 0.018365277 0.037014555 0.023546392 0.00887083

fc1.bias f4 [128]
00000000: c4be bfbb 1f1b d339 e8db febc fb1d 043d
00000010: 4db8 9fbc e42a 7fbc 91b5 e13b 210c aabc
00000020: 2ad5 84bd 6940 563d db21 5ebc a4c8 9839
00000030: 10f7 ac39 741b febc d850 a5bc 33a4 33bc
00000040: 6f82 c6bc f3fa 18bd d50c f1bc d14f e9bc
00000050: 32b9 153c c996 a9bc 08d0 5ebb 88fe 7cbc
00000060: 69c0 bf3c efcc 3abd 7745 65bc dab9 3b3c
00000070: 8acb 93bb fce5 12bd 4035 42bc 6c85 603c
00000080: 608a 613c 8ee8 6e3b 4587 84bd 8b5d 07bd
00000090: 991c 78bc 0a20 6e3c 5171 02bb 37a8 9fbc
000000a0: 7faf 6bbc 5947 2939 a07e 193b f9f8 9cbc
000000b0: 215b 16bd 1a80 2f3c fe04 cd3c 9ec8 df3b
000000c0: c93f babc eaf6 b4bc 17fe 44bd 97d4 3fbc
000000d0: bdc7 1abd 496f 6d3d e58e 35bd 4cd6 8fbc
000000e0: 6a40 483c 7eb0 8abb 0eab 9abc da02 5abd
000000f0: a9c5 05bd 2cdb 123d 03d4 27bd 598d b83c
00000100: 207a 4ebd 80e2 8fbc e57b e03c 36a4 9bbd
00000110: 54a7 abbb ebb2 adbc 35af 743c 234b c7bc
00000120: 21e7 f0bb ae10 9ebb ed18 c2bb 1cdd 283d
00000130: 2ba6 3fbd ff84 07bd e501 51bb 5779 40bb
00000140: cc82 c13a 0678 fbbb 2275 26bd 3215 9e3c
00000150: 20d5 50bc 57aa e3bc 7436 27bd d10e 1c3d
00000160: dc12 3c3c 5e91 ec3c ae89 20bd 3a25 093d
00000170: 2859 86bc 59d1 1b3d 55f0 d63c aea1 65bc
00000180: 4c1b 0dbd 778f 37bc c6cb 97bb 4fb2 a8bc
00000190: 97ab fd3c 8ae5 613c 6414 ddbc 1321 2f3d
000001a0: b17c 6a3c 230b 10bd 1eb8 39bc 9858 dbbc
000001b0: d763 12bd accc 42bc f962 233d c9c9 223d
000001c0: fbce 5dbd df08 dabc 5943 3c3b f651 763c
000001d0: a9ab d93b 5449 d5bb 57c3 d5bc 78f8 e7bc
000001e0: 995c 363d 6e4b 523b 6ff9 96bb f99d e53b
000001f0: f1f1 5abd 00a8 96bc 01b5 bd3b 3c6b 78b9
-0.0058515985 0.00040265263 -0.031110719 0.032255154 -0.019497061 -0.015574191 0.0068880995 -0.020757737
-0.0648597 0.05230752 -0.013557876 0.00029141188 0.00032990472 -0.03101895 -0.02018015 -0.010964441
-0.024232117 -0.0373487 -0.029425064 -0.028480442 0.009138392 -0.020701783 -0.0033998508 -0.015441544
0.023407178 -0.045605596 -0.0139936125 0.011457885 -0.0045103477 -0.03586386 -0.011853516 0.013703685
0.013765901 0.0036454531 -0.06471113 -0.033048194 -0.015143537 0.014534006 -0.0019903968 -0.01948939
-0.014385103 0.00016143675 0.0023421422 -0.019161688 -0.036708 0.010711694 0.025026795 0.0068293354
-0.022735493 -0.022090394 -0.04809388 -0.0117084 -0.03778814 0.057967458 -0.044325728 -0.01755824
0.012222389 -0.0042324653 -0.018880393 -0.053225376 -0.032659207 0.03585355 -0.040973675 0.022528337
-0.050409436 -0.017564058 0.027402828 -0.0759968 -0.005238453 -0.021203479 0.014934351 -0.02432782
-0.0073517715 -0.0048237657 -0.0059233815 0.04122649 -0.04678933 -0.03308582 -0.0031891998 -0.00293692
0.0014763712 -0.00767422 -0.04063905 0.019297216 -0.012746125 -0.027791185 -0.040823415 0.038100068
0.011479106 0.02887791 -0.0391938 0.033482768 -0.016399935 0.038041446 0.026237646 -0.014015598
-0.03444986 -0.011203638 -0.004632446 -0.020592837 0.03096561 0.0137876365 -0.026987262 0.04275615
0.014311955 -0.03516687 -0.011335401 -0.026775643 -0.035739746 -0.011889618 0.03988931 0.03974322
-0.05415247 -0.026615558 0.0028726666 0.015034189 0.006642778 -0.0065089855 -0.026094122 -0.028316721
0.0445219 0.0032088417 -0.0046073715 0.007007357 -0.05345339 -0.018390656 0.0057893996 -0.00023691071

fc2.weight f4 [10, 128]
00000000: 3481 543d c52c 58be 6143 c9bd 8562 92b9
00000010: 65b2 2a3e 5a55 883c 360e 81be 14b6 3cbe
00000020: c521 f83d 491b af3b 5f43 a5bd d154 023e
00000030: f76f 5abe 193e 963d 150f 66be 1562 c0be
00000040: aa17 6b3d 01d3 da3d d073 963d 729c bc3d
00000050: 32bf 86be d47f 75be 52a2 fb3d 2c09 83bd
00000060: 590f 9cbe 6ef3 71bd 4da7 40bd a676 7e3d
00000070: 806f a4be 3dc3 09bd 4104 f63d f54d 123e
00000080: 2964 82be d031 233e a784 113e cb52 973d
00000090: 7171 11bd 854b 253e d118 1abf 7f2b d2bd
000000a0: 4be1 b2be d599 95be 69f1 9dbe 25ea 753d
000000b0: 52d2 053e 668f d03d 4901 833e 2db6 21be
000000c0: fa0e b4be f8e8 27be da14 143e 7a8c f83d
000000d0: 3603 9abe 0844 35bd 37e6 a53d 1664 2abc
000000e0: d22e 923d 39eb 303d d70f 2abd 75e7 febd
000000f0: b110 84bd da11 513e 64d0 7abd 1961 0b3e
00000100: 3242 e63d f989 05bf bdeb 2fbe e4c4 473e
00000110: 7841 d5bd c806 b1bc 40f2 153d df72 f1be
00000120: e4fe 7cbd 803b e73d af2a 98bd 2c27 30be
00000130: 2b8e 57bc 6e26 873e 5a3b 3f3d 3a34 5c3d
00000140: 378d fc3c 79b2 e5bd 19fd 81be 5395 5c3e
00000150: 2e39 783d 4c48 013e a7ac 32be 2d9a ecbd
00000160: 3493 5d3e d1e9 8d3d 0495 b1bc e033 1dbe
00000170: 15a1 2e3e aa0e a9be a23f 40bc dba9 a5be
00000180: 86c3 4bbe f4aa 583c 9dc6 083c 69fc b4be
00000190: 8a81 cfbe d605 35bb be98 c73d 6e9c 903d
000001a0: 37e5 333e 519f f43d 0c2f 4e3d fc0a aebe
000001b0: 78b6 06be 4774 1fbe e027 98bd 9426 ed3d
000001c0: d703 aebc b16c a4bd 99c8 d33d 2ef0 0cbe
000001d0: 7eec b1be 1c40 d53d 51c4 893d 16d7 e83d
000001e0: 19b1 4ebe 60e1 193e b57e 34be c979 a8bd
000001f0: de99 d1be 0fcc 5cbe 1d6e 03be 11d2 c9bd
00000200: a8cf a53d 3069 563d 767a ac3d cc8c 09be
00000210: 4d7b b4be e4e1 00be 8c17 c6bd 285f 173e
00000220: 481e 7abd 4e11 bd3d 035d 573d 4e69 d23d
00000230: 2c5f 893e 8046 ff3c 6b75 103d c5c2 fc3d
00000240: 1d27 4abe 2bbe 2b3e 72b8 28be 5229 973d
00000250: 7291 733e c701 653e 5b2f af3e 8cd0 743d
00000260: 252e ecbd d8e8 c53d 57f6 81be 6028 eb3d
00000270: 1784 623d 1453 6c3d a5c6 9aba ed1a c93d
00000280: 6ea1 c53d 184f 143e c39e d53d 2886 7b3d
00000290: 0070 103e 5374 babc 4173 893c 6406 d1bb
000002a0: e001 63be ff11 11bd 1f4b 4ebe 39e2 f8be
000002b0: 61c1 843b 8d36 85be 72c8 96be 1fcb 4dbc
000002c0: eaed a5bd 7bc8 283d 9129 b7be 9f06 513e
000002d0: 8b3f ff3d 7dc7 fbbd ec36 27bd 047b cdbc
000002e0: 5ff0 88bd 69ba 05be 5162 ed3d fb31 d33d
000002f0: 16b3 653d c4ce a7bd cdf1 b03c e349 c0bc
00000300: bc44 83bd 3a57 203d 44ab 923e c9b8 f53d
00000310: 756d 16bd ac54 21be b0e0 d2be 5bf7 81be
00000320: 2740 003c ebf9 0c3e f229 b5bd 06d7 c9bd
00000330: b20e 03be b294 f53c c0b3 e83c ce71 b33c
00000340: 2bf8 c9bd 78f3 e8bc 9558 103e d7db 06bf
00000350: e4b4 403e 6710 9ebc 84bf 1b3e 0b25 833e
00000360: 5c88 5f3e 090c d9be 6c40 33bd ae9a e0be
00000370: 9c98 163e a290 663e 7009 3f3e 30b0 d93e
00000380: 73a4 953d 7a14 4cbd 4555 8d3d 2f0c 2fbd
00000390: 8158 533d bb10 7d3c 7d2d b8bd 6272 a1be
000003a0: 77e1 cdbd f6b8 9cbe 074e 24be b7b7 61be
000003b0: fcc4 a23d 7610 0ebe e5f1 ccbd b1dd debd
000003c0: 3781 f83c 0136 b73c 213b efbc bff8 0e3d
000003d0: 21ac 4c3e ce5e 753e b8db 6bbc 5aa7 31be
000003e0: 7bc1 e8bd f213 adbe 7af9 9abe db40 3cbd
000003f0: 827c 863e a92e 78be 3bff acbe 8f83 7bbd
0.05188103 -0.21110828 -0.09827305 -0.00027920693 0.16669615 0.016642261 -0.25206155 -0.18428832
0.12115816 0.005343829 -0.08069491 0.12727667 -0.21331774 0.07336063 -0.22466691 -0.3757483
0.057395615 0.10684777 0.07346308 0.09209527 -0.26317745 -0.23974544 0.122868195 -0.06398234
-0.3048046 -0.059070043 -0.04703455 0.06212487 -0.32116318 -0.03363346 0.1201253 0.14287551
-0.2546704 0.1593697 0.14210759 0.073888384 -0.035508577 0.1614209 -0.60194117 -0.102622025
-0.3493751 -0.29218927 -0.30848244 0.06003775 0.13068512 0.10183601 0.25586918 -0.15792151
-0.35167676 -0.16397464 0.14461079 0.12136169 -0.30080575 -0.044254333 0.081005506 -0.010399839
0.071378365 0.043193076 -0.041519012 -0.12446491 -0.06448496 0.20416966 -0.061233893 0.13611259
0.112430945 -0.52163655 -0.17179771 0.19508702 -0.10412878 -0.021609679 0.03660798 -0.47157952
-0.06176652 0.112906456 -0.07430016 -0.17202443 -0.013156454 0.26396507 0.04668746 0.053760745
0.030829055 -0.112156816 -0.2538841 0.21541338 0.060601406 0.12625235 -0.17448674 -0.11552844
0.21638185 0.069293626 -0.021677501 -0.1535182 0.17053635 -0.33019 -0.011733921 -0.32356152
-0.19898805 0.013224352 0.008348134 -0.35348824 -0.40528518 -0.0027621887 0.0974593 0.070610866
0.17567907 0.1194445 0.050337836 -0.33992755 -0.13155544 -0.155717 -0.074294806 0.11579624
-0.021242065 -0.08028544 0.10340995 -0.13763496 -0.34750742 0.104126185 0.067268975 0.113691494
-0.20184745 0.1502738 -0.1762646 -0.08226354 -0.40937704 -0.21562217 -0.12834974 -0.0985452
0.08096248 0.05234641 0.08421795 -0.13432616 -0.3525032 -0.1258617 -0.0967246 0.14782393
-0.061064035 0.09231816 0.052578937 0.102739915 0.26830423 0.031161547 0.03526823 0.12341837
-0.19741483 0.16771762 -0.1647661 0.07380928 0.23785952 0.22363959 0.34215817 0.0597692
-0.11532239 0.09663552 -0.25383255 0.1148231 0.055301752 0.057696417 -0.0011808468 0.09819589
0.09649931 0.14483297 0.10430672 0.06140724 0.14105225 -0.022760546 0.01677859 -0.0063789356
-0.22168684 -0.035417553 -0.20145844 -0.48610094 0.004051373 -0.2601818 -0.29449803 -0.012560635
-0.08102019 0.041206818 -0.357739 0.20412682 0.12463292 -0.12293909 -0.040823862 -0.025083072
-0.06686472 -0.13059391 0.11591018 0.103122674 0.056078993 -0.08193734 0.021599675 -0.023472732
-0.064095944 0.039145686 0.2864629 0.119981356 -0.03672548 -0.15754956 -0.41187048 -0.2538403
0.007827795 0.13767211 -0.08845891 -0.098554656 -0.12798575 0.02997813 0.028406024 0.021904852
-0.098617874 -0.028436407 0.14096291 -0.526792 0.18819004 -0.01929493 0.15209776 0.256142
0.2182936 -0.42391995 -0.04376261 -0.4386801 0.14706653 0.2251611 0.18655944 0.42517233
0.07306757 -0.049824215 0.069010295 -0.04273623 0.051598076 0.015445883 -0.08993051 -0.3153258
-0.1005277 -0.30609864 -0.1604539 -0.22042738 0.07947728 -0.13873467 -0.10007075 -0.10882128
0.030335052 0.022364618 -0.029203 0.03490519 0.19987537 0.23961946 -0.014395647 -0.17348996
-0.113650285 -0.3380428 -0.3026846 -0.04596029 0.26266867 -0.2423655 -0.33788475 -0.06140476

fc2.bias f4 [10]
00000000: 04fa 3dbd 37e2 85bd ac8c c6bd b15b fcbc
00000010: 3f33 f4bc a7bc abbc c813 fe3c 51bb d63c
00000020: af03 883e dac0 e63d
-0.04638101 -0.06537288 -0.096948 -0.03080544 -0.029809592 -0.02096398 0.031015292 0.026212366
0.2656531 0.11267252
