static/model/digit_model.pth (torch, 33968 bytes, 4 tensors)

layers.0.weight f4 [10, 784]
000000 a9 d4 88 bb aa 3f 97 bc 43 78 00 bd 76 b8 17 bc
       -0.0041757417 -0.018462975 -0.03136469 -0.0092602875
000010 42 bc f3 bc b9 64 53 bd d5 68 0a bd af 42 17 bd
       -0.029752854 -0.05160973 -0.033791382 -0.03692883
000020 8d b7 62 bd 33 3f 7c bd 79 50 82 bd 0a 5a 8a bd
       -0.05535083 -0.06158371 -0.06363005 -0.06755455
000030 6d d6 47 bd 27 7b 0f bd a7 07 a8 bc 43 62 34 bc
       -0.048788477 -0.035029557 -0.020511461 -0.011009756
000040 e3 5b 8e bd 2d e3 97 bc 99 b0 1b bd e6 a9 87 bd
       -0.0695112 -0.018540943 -0.038010214 -0.066242024
000050 5d 2e 72 bd 34 4f 85 bd 2a be 8b bd 03 13 cb bb
       -0.059126247 -0.065092474 -0.0682338 -0.0061973347
000060 91 15 2b bd be 05 8b bd 37 e8 14 bd 8d c8 12 bd
       -0.041768614 -0.067882046 -0.03635427 -0.03583579
000070 d7 55 4e bd 79 88 2b bd 3d 98 3b bd 15 8a 33 bd
       -0.050374832 -0.041878197 -0.045799483 -0.043832857
000080 63 ec f0 bb fd af 83 bd 59 c5 1f bd ab be d3 bb
       -0.0073523982 -0.064300515 -0.039006565 -0.0064619384
000090 5c 9f f3 bc 77 24 7e bd f2 96 20 bd df 4e 00 bc
       -0.029739074 -0.062046494 -0.039206453 -0.007831304
0000a0 c0 44 52 bd 23 6f 51 bd a2 a0 7a bd 28 4a e3 bb
       -0.051335096 -0.05113138 -0.061188348 -0.0069363303
0000b0 c7 33 cd bc 77 ca 07 bc e8 65 8d bd 1b da 83 bd
       -0.025049103 -0.0082880175 -0.06904203 -0.06438085
0000c0 4d ee 1b bd 9c 99 af bc 8c 6f 06 bd 92 de 86 bd
       -0.03806906 -0.021435551 -0.032821223 -0.06585421
0000d0 a4 ab 8e bd d8 0d d8 bc 75 13 22 bc e1 3e 5e bc
       -0.069663316 -0.026373789 -0.009892334 -0.013564796
0000e0 16 c3 dc bb 66 e6 e1 bc ae 58 ff bc 14 c4 2b bd
       -0.0067371232 -0.027575683 -0.031170215 -0.04193504
0000f0 73 22 c0 bb 77 83 6b bd b8 4a 96 bd 81 2b 41 bd
       -0.0058634817 -0.05749842 -0.0733847 -0.04716063
000100 32 a0 4a bd 54 d0 f1 bc 0f b6 bd bd 27 17 e1 bd
       -0.04946918 -0.029518284 -0.092632405 -0.10990744
000110 0c be 2e bd 67 81 cd bd 8b 07 53 bd dd 7b 85 bd
       -0.04266171 -0.10034447 -0.051520865 -0.06517766
000120 4a 7f 2f bd 21 fc 7b bd d5 1c 70 bb 2f e5 7a bd
       -0.042846 -0.061519746 -0.003663828 -0.061253723
000130 3e cb cd bc 3c 84 71 bd 3f c7 68 bd 20 b7 85 bc
       -0.025121327 -0.058964 -0.05683064 -0.016322672
000140 c8 34 07 bd 60 04 d7 bc 21 be 81 bd 9c 64 a3 bb
       -0.03300932 -0.026247203 -0.06335092 -0.004986359
000150 c2 8f 91 bd bd 69 90 bc f0 ac 7b bd 9e 01 08 bd
       -0.07107498 -0.017628545 -0.061444223 -0.033204667
000160 bd 2e 85 bd 92 1d 7e bc 9e 59 4e bd 7f 66 c3 bb
       -0.06503055 -0.01550998 -0.050378434 -0.005963146
000170 d1 9c 35 bd 1a 32 88 bd db bc 83 bd 8f 81 ae bc
       -0.044339005 -0.06650181 -0.06432506 -0.021302013
000180 59 19 18 bd cb 09 6e bd 3e ad 0e bd 38 48 26 bc
       -0.03713355 -0.058114808 -0.034833185 -0.010149054
000190 26 1c 23 bd 8b cc f9 bb 81 83 2b bc 9a 84 b1 3c
       -0.039821766 -0.0076232604 -0.010468365 0.021669675
0001a0 4c 78 1a bc 3e 04 fc 3b 7e 15 01 bc ee 4e 23 bc
       -0.009428095 0.0076909354 -0.007878659 -0.009967549
0001b0 63 46 d6 bc e1 ad 26 bd a3 99 44 bd 9e 92 84 bc
       -0.02615661 -0.040693168 -0.047998082 -0.016183194
0001c0 8f ae 15 bd 61 c7 6f bd 39 15 35 bc 9e 31 0c bd
       -0.036543425 -0.058539752 -0.011052423 -0.034227006
0001d0 88 b2 34 bc c1 85 75 bd 9e 24 36 bd 78 ba 95 bc
       -0.011028893 -0.05994201 -0.044468515 -0.018277392
0001e0 89 24 be bc c6 bf a9 bb 31 36 25 3d 18 fd 6f 3d
       -0.02321078 -0.005180332 0.040334884 0.05859098
0001f0 6a 08 1f 3d 90 07 fc 3a f1 fc 0d 3d e8 60 a8 3d
       0.038826384 0.0019228328 0.03466505 0.082216084
000200 0b 7a 2a 3d 18 d7 a9 3c 84 c5 94 3d ba 3f f3 3c
       0.041620295 0.020732448 0.072642356 0.029693473
000210 ad dc bc bc 30 c4 7a 3c f8 01 34 3d 00 71 9c bc
       -0.023054445 0.015305564 0.04394719 -0.019096851
000220 c0 01 46 3d fd 33 93 3c 17 5d 8e bb 9f 3a a0 bc
       0.048341513 0.017969126 -0.0043445933 -0.019559203
000230 33 ac 47 bc 25 37 57 bd 1c 20 86 bd d9 70 08 bd
       -0.012187052 -0.052542824 -0.06549093 -0.033310745
000240 8f 66 6f bd 09 37 a5 bc a3 55 7c bd e0 72 bc bc
       -0.058447417 -0.020167844 -0.061605107 -0.023003995
000250 c3 74 0d bd 3a d5 5b 3c 9a bb e4 3c 63 89 bb 3d
       -0.03453518 0.013417536 0.027921487 0.09157064
000260 06 be 13 3d d0 df 0a 3d cb 88 83 39 29 19 47 bd
       0.036069892 0.03390485 0.00025088186 -0.04860798
000270 01 a9 3d bc 9b a3 4e bc 7f 5c f2 bc 67 11 c6 bc
       -0.011575938 -0.012612249 -0.029585121 -0.02417822
000280 92 a4 f8 3c a9 51 83 3c ef 5b 58 3d 79 14 29 3d
       0.03035191 0.01603015 0.05282205 0.04127929
000290 2f 1e 71 3d 3d 69 2a 3d 5a c2 bc bc 81 e8 ea bc
       0.058866676 0.04160427 -0.023041893 -0.02867532
0002a0 e3 27 0d bd f0 1b bc bc 52 ed 72 bd 9d bd 14 bd
       -0.034461867 -0.02296254 -0.059308358 -0.03631364
0002b0 db 44 39 bd db ee 48 bd 91 a7 66 bb 04 ef 48 bd
       -0.04523168 -0.049055915 -0.0035195092 -0.049056068
0002c0 b2 58 44 3d a1 01 a9 3d 52 db 5e 3d f3 76 ae 3d
       0.04793615 0.08252264 0.05440838 0.085187815
0002d0 af 6e 99 3d 75 49 92 3d a0 54 7a 3d 74 ac bd 3c
       0.07491814 0.07142917 0.06111586 0.023153521
0002e0 cc 04 34 3d d8 a9 60 3c da 9b be 3c 71 40 10 3d
       0.043949887 0.013712369 0.023267675 0.035217706
0002f0 e1 b2 7c 3d 68 58 09 3d 86 5e 37 3c b6 b3 94 3d
       0.06169403 0.033531576 0.01119197 0.0726084
000300 f0 46 ad 3d 90 b9 9c 3d 9d ec b0 bc 08 de 2d bd
       0.08460796 0.07652581 -0.021597201 -0.042448074
000310 65 ca 4f bd 08 e3 29 bd 92 30 1b bd 9f 40 60 bd
       -0.050730128 -0.04147628 -0.037888117 -0.054749127
000320 1d 46 d0 bd 16 27 03 bd b0 18 26 3b b8 70 1d 3d
       -0.10169623 -0.032019697 0.0025344305 0.038437575
000330 e7 92 f5 3d 60 42 9b 3d 11 86 9d 3d e4 d8 89 3d
       0.1199091 0.075810194 0.07691587 0.06730822
000340 4f 2e b0 3d 89 15 57 3d 75 84 6c 3d 17 ac 3f 3d
       0.08602583 0.052510772 0.05774351 0.046794977
000350 11 49 78 3c c0 78 50 3d da 6e 66 3d 8d 9f 8a 3c
       0.015154139 0.050896406 0.05625806 0.016921783
000360 c5 01 cb 3d 26 06 e3 3c 33 f8 46 3d 8b 97 f3 3d
       0.09912447 0.027712893 0.048576545 0.11894139
000370 5c e2 e7 3d c7 d3 d6 3d c8 fb e0 bc 94 77 4d bc
       0.113224715 0.10489612 -0.027463809 -0.012540717
000380 79 7b f2 bc ab b8 39 bd b2 df 72 bc 3d a0 4c bd
       -0.029599892 -0.04534213 -0.014823841 -0.049957503
000390 35 ba 5d bd 62 7d cb bc 47 3e 28 3d 91 4d b3 3c
       -0.05413266 -0.02484006 0.041075017 0.021887572
0003a0 d9 7a ca 3d b2 72 8e 3d 12 74 a7 3d e3 ae 9e 3d
       0.098867126 0.0695547 0.081764355 0.07748201
0003b0 e9 f2 9b 3d 8e 28 44 3d f3 74 2e bc 22 7e 9a bc
       0.07614691 0.04789024 -0.010648 -0.018858973
0003c0 a5 73 62 3c 96 81 78 bc eb 5b 2b 3d fb 2f 83 3d
       0.013821517 -0.015167614 0.041835707 0.06405636
0003d0 20 4f 94 3d 3f 86 fa 3d cd 99 55 3d 4c 57 f8 3d
       0.072416544 0.12232637 0.05214863 0.121260256
0003e0 f7 88 31 3e 2e ef ce 3d 6e 59 30 3d a7 43 33 bd
       0.17337404 0.10104214 0.043054037 -0.04376569
0003f0 42 95 5a bb d1 ad 00 bd 94 a7 07 bd 48 9c 21 bd
       -0.0033353125 -0.031415764 -0.0331188 -0.039455682

layers.0.bias f4 [10]
000000 e5 41 fb 3c 78 a0 19 3b 86 4b 28 bc 6b 08 0e 3d
       0.03067107 0.0023441594 -0.010271912 0.034675997
000010 3f ce 6a 3d b4 28 40 3c aa cd bf bc 9f 66 8e bb
       0.057325598 0.011728454 -0.023413498 -0.0043457295
000020 49 35 da bc 73 f5 5d 3b
       -0.026636736 0.0033868223

layers.1.weight f4 [10, 10]
000000 9f 45 a9 bd 0d 87 8e bc 7d ab 74 be eb c8 e6 3e
       -0.08265232 -0.017398382 -0.23893543 0.45075163
000010 d9 b5 de be eb 84 4f be 55 e9 66 be 90 d8 8d 3e
       -0.43498114 -0.20265548 -0.22549947 0.27704287
000020 90 71 bd be c3 cf 56 3e b9 25 86 be 9b 13 b3 be
       -0.37000704 0.20977692 -0.26200655 -0.34975895
000030 8d 45 91 3e a7 38 27 bf cf 5b f2 3e 21 41 9e bd
       0.28373376 -0.6532082 0.4733567 -0.07727266
000040 2f fc e3 3e 2f 9c 3e be 37 85 8d bd 17 af 14 be
       0.44528338 -0.18614267 -0.06910174 -0.14519916
000050 03 9b f3 be 42 9f d5 bc 5c 54 74 bd e3 85 78 3e
       -0.47579202 -0.026076917 -0.059650764 0.24269824
000060 e9 d7 38 3e 5c b8 e2 bd be 1f 92 3e 20 e1 23 3e
       0.18051113 -0.1107032 0.28539842 0.16003847
000070 d9 8a b1 bd 20 ea c6 bd a2 65 8d 3e 77 4c e1 3d
       -0.08669061 -0.097126245 0.27616602 0.11000913
000080 9e cb 84 be 49 64 3d be 9b 33 de 3e ab db 90 be
       -0.25936598 -0.18495287 0.43398747 -0.28292593
000090 f8 7f c8 be cd 11 7d be 6d 4d 5d be 68 b5 e9 bd
       -0.39160132 -0.24713822 -0.21611567 -0.114115536
0000a0 e6 87 ab be 7c ae 65 3e e5 1d 56 3e ae ef 9f be
       -0.3350212 0.22429842 0.20909841 -0.3123755
0000b0 21 81 da be d7 f9 72 3e 5a 76 f4 bd 8c 4c 84 3e
       -0.42676643 0.23728119 -0.11936636 0.2583965
0000c0 9b 0b c2 3e 4b 01 ad be bb 49 56 3f 94 3b 15 3c
       0.3789948 -0.3379005 0.83706254 0.009108443
0000d0 58 e9 72 3e 2a 47 50 3c e4 e4 a9 be 32 3f ca bc
       0.23721826 0.012712279 -0.33182442 -0.024688337
0000e0 d5 38 8b 3c 55 bd 0f be 8d 7b 92 be af 18 8a be
       0.016994873 -0.14037068 -0.28609887 -0.26971957
0000f0 00 00 80 3f 36 6e 90 3e 9f 12 5f bc 1b 7f 84 bc
       1.0 0.28209084 -0.013615279 -0.01617389
000100 2c 35 f8 be ae 30 cf 3d 62 1b ef 3e b3 69 e8 3d
       -0.48478067 0.10116707 0.4670058 0.113482855
000110 ce a7 07 be 55 55 87 be b3 41 81 3d 84 5d 2b bf
       -0.13247606 -0.2643229 0.06311359 -0.6693957
000120 5c 5b c8 3d 30 ff 0e 3e d1 36 14 bc b1 56 89 3e
       0.097830504 0.13964534 -0.009046272 0.26823953
000130 f4 b8 93 bd 49 c6 4c be fb 3b df 3e e3 25 b9 bd
       -0.072130114 -0.19997515 0.4360045 -0.090404294
000140 78 ba eb 3e 78 56 17 bd f8 10 02 3e c1 3f 82 be
       0.46040702 -0.036947697 0.12701786 -0.25439265
000150 22 21 92 bd 7b 89 a3 3d f4 e7 0a 3e 16 d1 8f 3e
       -0.07135226 0.07985207 0.13565046 0.28089207
000160 c6 b8 28 be 46 4d bc 3e 3c 1a a5 3b 87 91 fc 3c
       -0.16476735 0.36777705 0.005038528 0.030831112
000170 8a 4e 65 3e a8 58 a2 be ac 40 59 3c cc 22 6c 3e
       0.22393242 -0.31708264 0.013260048 0.23060149
000180 ba d7 0c bf 69 63 18 3e fc d1 57 3e c0 23 aa 3e
       -0.5501667 0.14881672 0.21076196 0.332304

layers.1.bias f4 [10]
000000 8b 12 01 3e ac b2 44 3e 62 e5 17 bf 19 23 5a bd
       0.1260473 0.19208783 -0.59334385 -0.053256128
000010 b0 53 0d 3d 20 66 73 3f 13 69 cd bd 52 81 3f 3e
       0.03450364 0.95077705 -0.10029807 0.18701676
000020 eb 68 cf be 08 81 34 3e
       -0.40509734 0.17627347
