static/model/digit_model.pth (torch, 33968 bytes, 4 tensors)

layers.0.weight f4 [10, 784]
0	0x3d5e0697	0.054205503
1	0x3c0397fa	0.0080318395
2	0x3ca635db	0.020289352
3	0x3ce92b93	0.02846316
4	0xbbdb24d1	-0.0066877385
5	0xbd10891d	-0.03528701
6	0xbd6e9ce5	-0.058255095
7	0xbc957397	-0.018243594
8	0xbcc21815	-0.023693124
9	0x3d5b367f	0.05351877
10	0x3d5bfe07	0.053709056
11	0x3d70681f	0.058693048
12	0x3b10a183	0.0022068925
13	0xbc1ed297	-0.009693763
14	0x3ca030c8	0.01955451
15	0xbd63b58f	-0.05559307
16	0x3d7ae6f3	0.061255407
17	0xbbdafe11	-0.006683119
18	0xbcb36d6b	-0.02190276
19	0x3d85ffe3	0.06542947
20	0xbd63a2fd	-0.05557536
21	0xbd241fd3	-0.040069412
22	0x3cccd9c1	0.025006177
23	0x3bc61fa1	0.006046251
24	0x3d5104c7	0.051029947
25	0x3c077451	0.008267478
26	0x3d845721	0.06461931
27	0x3c7719b9	0.015081816
28	0x3d858d81	0.0652113
29	0xbd8012ff	-0.06253623
30	0xbd2c38d9	-0.0420464
31	0xbca28793	-0.019840037
32	0x3da42db5	0.080165304
33	0x3d6e8aa7	0.058237698
34	0x3db3d849	0.087814875
35	0xbb739bfc	-0.0037171831
36	0x3dc01ac9	0.09380109
37	0x3caefaf6	0.021359902
38	0x3ad50308	0.0016251514
39	0x3d05f381	0.032702927
40	0xbd3b9c99	-0.04580364
41	0x3d70e32b	0.058810394
42	0xbd8a08c8	-0.06739956
43	0x3d9a8d12	0.07546438
44	0xbcc22c19	-0.023702668
45	0xbd2af901	-0.041741375
46	0x3d0c21c3	0.034211885
47	0xbd1311b1	-0.035905544
48	0xbc9f28b1	-0.019428583
49	0x3c93f807	0.018062605
50	0x3c16ea31	0.009211109
51	0xbd3567e9	-0.04428855
52	0x3c665d99	0.014060401
53	0xbd8d8391	-0.0690986
54	0x3cf5e2fb	0.03001546
55	0xb9b96a09	-0.00035364952
56	0x3dc7e533	0.09760513
57	0xbc5bc745	-0.013414209
58	0x3cb9ceee	0.02268168
59	0x3d30d4ad	0.043171573
60	0x3d3d295b	0.046182018
61	0x3d65d8db	0.056115013
62	0xbd81b0a2	-0.06332518
63	0x3d6cbb9f	0.057796117
64	0xbcd03c72	-0.025419448
65	0xbd2ecd13	-0.042676043
66	0xbd866a09	-0.06563193
67	0x3d26fed7	0.040770378
68	0x3d520437	0.05127355
69	0x3d8949b0	0.06703508
70	0xbcedb46d	-0.029016698
71	0xbc376687	-0.011193878
72	0x3c4b4a88	0.012407906
73	0x3cdc3c78	0.026884302
74	0x3d569bd1	0.05239469
75	0x3db81be3	0.08989694
76	0xbccd2a4b	-0.02504458
77	0x3d203185	0.039109726
78	0xbcdd9010	-0.027046233
79	0x3da3b003	0.07992556
80	0xbd269e7d	-0.04067849
81	0x3d029278	0.031877965
82	0xbd91b1ad	-0.07113967
83	0x3d665d67	0.05624142
84	0x3dac042d	0.08399234
85	0xbc7cc039	-0.015426689
86	0x3d01c902	0.031685837
87	0x3b136044	0.0022487799
88	0x3d1212af	0.03566235
89	0x3c23f520	0.010007173
90	0x3dafb4a1	0.08579374
91	0xbb5ea1fe	-0.0033971067
92	0xbca53bdb	-0.020170143
93	0x3d612f57	0.054976787
94	0xbba375a7	-0.0049883905
95	0xbd8adfac	-0.06780943
96	0xbd3995f9	-0.04530904
97	0x3cceb4b1	0.025232645
98	0x3cc4fe96	0.024047177
99	0x3d45cf3f	0.04829335
100	0x3d77cbef	0.06049722
101	0x3c66e6a9	0.01409308
102	0x3d01c99c	0.03168641
103	0xbd87db43	-0.06633618
104	0x3d54aa81	0.051920418
105	0x3c88aef3	0.016684985
106	0xbd4634d9	-0.048390243
107	0x3b35ad1e	0.0027721594
108	0x3db5f26d	0.0888413
109	0x3db9b0af	0.09066903
110	0x3db06c6b	0.08614429
111	0x3b45b51c	0.0030167764
112	0xbd052f41	-0.032515768
113	0x3db03241	0.08603335
114	0x3c8b6d7f	0.017019985
115	0xbd76f752	-0.060294457
116	0x3c662201	0.014046193
117	0x3ca5ea4c	0.020253323
118	0x3d0e0d20	0.034680486
119	0x3d654f92	0.055984087
120	0xbd635407	-0.055500057
121	0x3cc06039	0.023483383
122	0xbcb28e90	-0.021796495
123	0x3aadd2f2	0.0013261719
124	0x3d66419d	0.056214917
125	0x3c2d96de	0.010595052
126	0x3ca42e64	0.020041652
127	0xbd3b4795	-0.045722563
128	0xbd8027a3	-0.0625756
129	0x3da38e04	0.07986072
130	0xbd71ea4f	-0.059061345
131	0xbd8016e9	-0.0625437
132	0x3d8ef181	0.06979657
133	0x3d9a13d7	0.075233154
134	0xbd4b78cf	-0.04967576
135	0x3d683f4f	0.056701
136	0x3cfa4ad3	0.030553257
137	0x3d8de306	0.06928067
138	0xbd8c137b	-0.06839653
139	0x3cd26355	0.02568213
140	0xbcec29b7	-0.028828485
141	0xbb1e26c4	-0.0024131993
142	0x3db214d9	0.086953826
143	0xbba0f2f7	-0.004911776
144	0x3d86176d	0.06547437
145	0xbcecd0c1	-0.028908135
146	0x3d947311	0.0724851
147	0xbd895483	-0.067055725
148	0xbcc6a12e	-0.024246778
149	0xbb46cebb	-0.0030335623
150	0x3cfc033d	0.030763263
151	0x3cd4e5f0	0.025988549
152	0xbd849964	-0.064745694
153	0x3c55e95d	0.013056126
154	0x3c825092	0.01590756
155	0xbdb7e9be	-0.0898013
156	0xbbd79820	-0.006579414
157	0x3cd69f3b	0.026198974
158	0xbd903864	-0.07042006
159	0xbcbebae4	-0.023282476
160	0xbd24de25	-0.040250916
161	0xbd4a9aa7	-0.049463894
162	0xbd815c89	-0.06316478
163	0x3dccaceb	0.09993919
164	0x3dc8ba29	0.09801132
165	0x3c8876d7	0.01665823
166	0xbd03d38d	-0.032184172
167	0xbc8d99fb	-0.017285338
168	0x3c45eff8	0.012081139
169	0xbcf27df8	-0.029601082
170	0x3bc5c8c1	0.0060358946
171	0xbd26172d	-0.040549446
172	0xbd8d3143	-0.068941616
173	0x3d38a417	0.045078363
174	0xbccd4f19	-0.02506213
175	0x3d66a383	0.05630828
176	0x3c031ea6	0.008002913
177	0xbd3af91d	-0.04564773
178	0xbc4ff5ed	-0.012692911
179	0x3d307aec	0.043085977
180	0xbd2dd9ce	-0.042444043
181	0xbcf8f2bc	-0.030389182
182	0xbc809faf	-0.015701143
183	0x3d4c056d	0.049809862
184	0xbdca0be0	-0.09865546
185	0x3bc8ab74	0.0061239544
186	0x3c989cf2	0.018629525
187	0xbd32cb78	-0.043651074
188	0x3d6968b7	0.05698463
189	0x3d059e2a	0.03262154
190	0x3d1a7474	0.037708715
191	0x3cd97469	0.026544767
192	0xbd08da22	-0.033411153
193	0xbd7ef37e	-0.06224393
194	0x3dae66ed	0.08515725
195	0x3d417e8f	0.047239836
196	0x3db607c9	0.08888204
197	0x3ca7c3ab	0.020479044
198	0x3d9e5fd7	0.07733124
199	0xbd83a718	-0.06428355
200	0x3d16ba9a	0.03679905
201	0x3d952350	0.07282126
202	0xbd7762db	-0.06039701
203	0xbdb1da69	-0.086842366
204	0xbda8e83c	-0.0824742
205	0xbda1dc8f	-0.07903396
206	0xbd347267	-0.044054415
207	0x3cdd676e	0.027026858
208	0xbdaf28e1	-0.08552719
209	0xbd365d0a	-0.044522323
210	0xbd61c666	-0.055120848
211	0xbd40d5f0	-0.047079027
212	0xbd252fdb	-0.04032884
213	0xbdac72db	-0.084203444
214	0x3c549faf	0.012977525
215	0x3cb82558	0.022478744
216	0xbd2825e9	-0.04105178
217	0xbcc313ef	-0.023813216
218	0x3c7eb95d	0.015547124
219	0x3d469112	0.048478194
220	0x3d59f592	0.05321271
221	0x3db93576	0.090434
222	0x3d6bcba3	0.05756725
223	0x3cd5cfd0	0.02610007
224	0xbc0c795b	-0.008573855
225	0x3c34e5a1	0.011041076
226	0x3d5d7f7f	0.054076668
227	0xbd8f4f2c	-0.06997523
228	0x3dab8819	0.08375568
229	0x3d724b0d	0.059153605
230	0x3d1f9a99	0.038965795
231	0x3da04d98	0.078273
232	0x3bdbc039	0.0067062643
233	0x3b9718aa	0.0046110945
234	0xbd2422fc	-0.040072426
235	0x3cb6bef8	0.022307858
236	0xbd854519	-0.0650732
237	0x3d5d7d21	0.05407441
238	0xbd9b81e8	-0.07593137
239	0xbaf0f2cf	-0.001838291
240	0xbbc5c343	-0.00603524
241	0x3cc65927	0.024212433
242	0xbd738ce1	-0.059460524
243	0xbca2d665	-0.019877622
244	0xbbb0c6b5	-0.0053947815
245	0xbca382ad	-0.019959772
246	0xbd2d6d96	-0.042340837
247	0xbd1513aa	-0.036395706
248	0xbd7c0737	-0.061530318
249	0x3c7a860f	0.015290751
250	0x3ce36ecb	0.027762791
251	0xbd7685f5	-0.060186345
252	0xbc91f9f9	-0.017819392
253	0x3ce0e437	0.027452571
254	0xbd394ecd	-0.045241166
255	0x3dae51f5	0.08511726

layers.0.bias f4 [10]
0	0xbb9c74af	-0.004774652
1	0x3d84ac2c	0.06478152
2	0x3c2c61f0	0.010521397
3	0x3d07ed03	0.033185016
4	0x3d0b896d	0.034066606
5	0x3d16bec5	0.036803026
6	0x3cbd2d59	0.023092913
7	0x3cc91fb2	0.024551246
8	0x3d88882d	0.066665985
9	0xbc43601e	-0.011924772

layers.1.weight f4 [10, 10]
0	0xbe9d87c4	-0.30767643
1	0x3e3dadcc	0.1852333
2	0xbf1e7897	-0.61902755
3	0x3e0cbd42	0.13744071
4	0x3c75baca	0.014998147
5	0xbef5f9a4	-0.48042023
6	0x3f0e448f	0.5557336
7	0xbe43df6f	-0.19128202
8	0xbed12c1c	-0.40853965
9	0x3e86618e	0.26246303
10	0x3eb2736e	0.3485369
11	0xbedc1138	-0.42981887
12	0xbe8016e2	-0.25017458
13	0x3e643d58	0.22289026
14	0xbe9e0947	-0.30866453
15	0x3f2e6386	0.6812061
16	0xbe9b8089	-0.30371502
17	0xbf105f78	-0.56395674
18	0xbec99e02	-0.39378363
19	0x3e1dca16	0.15409121
20	0xbea48d42	-0.3213902
21	0xbe3fdbaa	-0.18736139
22	0xbf0a2010	-0.53955173
23	0x3ef68965	0.481517
24	0x3d948666	0.07252197
25	0xbd611747	-0.05495384
26	0xbea9cf1d	-0.33165827
27	0x3e5a6498	0.21327436
28	0x3f06e4f3	0.526931
29	0x3e36ff8c	0.17870921
30	0xbee56640	-0.44804573
31	0x3e5f0245	0.2177821
32	0x3da297f4	0.07939139
33	0x3ca44b8b	0.020055553
34	0xbcdd5957	-0.02702014
35	0x3d9645f4	0.07337561
36	0xbf1240db	-0.5713021
37	0x3cb8dbaa	0.022565681
38	0x3e94d300	0.2906723
39	0xbd1ebc9d	-0.038754094
40	0xbd9ef85d	-0.07762215
41	0xbf4a83d6	-0.79107416
42	0x3e981efd	0.29711142
43	0x3eb15739	0.34636858
44	0x3d8c3821	0.06846643
45	0xbe4701a1	-0.19434215
46	0x3e894756	0.26812238
47	0xbe61e013	-0.22058134
48	0xbed3cd08	-0.41367364
49	0xbf4cd99c	-0.80019546
50	0x3db71cfa	0.08941074
51	0x3e185d3a	0.14879313
52	0xbe84053f	-0.25785252
53	0x3e36a4be	0.17836282
54	0x3d1b6b00	0.03794384
55	0xbd12e347	-0.03586128
56	0x3ea867a2	0.32891566
57	0xbddcb844	-0.107773334
58	0x3eb0c3b7	0.3452432
59	0xbf3ea5ad	-0.7447155
60	0xbe720a97	-0.23636852
61	0xbe210cde	-0.15727565
62	0xbefb12d8	-0.49037814
63	0x3f3b38a3	0.73133296
64	0xbf17789b	-0.59168404
65	0xbd604440	-0.05475259
66	0x3d905212	0.07046904
67	0x3ec31ed2	0.38109452
68	0xbe8b3424	-0.27188218
69	0xbf1e74a4	-0.6189673
70	0xbeb7c6e6	-0.35893935
71	0xbeca022f	-0.3945479
72	0xbe8c903f	-0.274538
73	0xbea4dd74	-0.32200205
74	0x3f4ad99b	0.7923829
75	0xbde4399b	-0.111438
76	0xbdb8848b	-0.090096556
77	0xbf1fe811	-0.6246348
78	0xbe091b6b	-0.13389365
79	0x3e3f1da4	0.18663651
80	0xbe2be59b	-0.16786806
81	0xbf18b76e	-0.5965489
82	0xbe3f13de	-0.18659922
83	0xbde655c1	-0.11246825
84	0xbde080ad	-0.10962043
85	0x3e6adbc8	0.22935402
86	0x3ed7e59c	0.42167366
87	0x3e9f8853	0.31158695
88	0x3e7434fb	0.23848335
89	0xbed0bbd3	-0.40768299
90	0xbc9aca32	-0.018895242
91	0xbeb65767	-0.35613558
92	0xbcdf22f8	-0.027238354
93	0xbe497a5e	-0.19675586
94	0x3ec4a332	0.38405758
95	0x3d936b97	0.071982555
96	0xbdae2603	-0.08503344
97	0x3efeede6	0.49790877
98	0xbead40d7	-0.3383853
99	0xbeeafe1f	-0.45897004

layers.1.bias f4 [10]
0	0xbdbca9df	-0.09212088
1	0x3d68c263	0.056826007
2	0x3cba5fc0	0.022750735
3	0x3ebbab2d	0.36654034
4	0xbe7ba5c4	-0.24574953
5	0xbe095945	-0.1341296
6	0x3e4edac5	0.20200641
7	0x3e942670	0.28935575
8	0x3d6a73f5	0.05723949
9	0xbe89e385	-0.26931396
